datascience/cnn/model_av/model_a_v2.pt (torch, 31215 bytes, 6 tensors)

conv1.0.weight f4 [32, 3, 3, 3]
0	0x3c10f63f	0.008847772
1	0xbd29ccfc	-0.041455254
2	0x3e172536	0.14760289
3	0xbdb167fa	-0.0866241
4	0x3d8ce0c2	0.06878807
5	0xbde78275	-0.113041796
6	0x3e0de4ca	0.13856807
7	0xbdd559a6	-0.1041749
8	0xbd70909b	-0.058731657
9	0x3e3af021	0.18255664
10	0x3e776085	0.24157913
11	0x3e67e012	0.2264407
12	0x3e6bc42b	0.23024051
13	0x3e1ea3bf	0.15492152
14	0x3ddab197	0.10678404
15	0x3bd65dcc	0.006541943
16	0x3d1ea50e	0.038731627
17	0xbd647de1	-0.05578411
18	0x3e5d0469	0.21583714
19	0x3e91da39	0.28486803
20	0x3ea3325c	0.3187436
21	0x3e58974f	0.2115147
22	0x3e2533a9	0.16132988
23	0x3de5e2d2	0.11224903
24	0x3e1fe4c3	0.1561461
25	0x3e1bf7e6	0.15231284
26	0x3e5f4b5f	0.21806096
27	0xbe32781e	-0.17428634
28	0xbe87f7c2	-0.26556212
29	0x3e045d50	0.12926221
30	0xbd207d40	-0.039181948
31	0xbc612270	-0.013741121
32	0xbde55dc7	-0.11199527
33	0x3e1dcf83	0.1541119
34	0x3e0800f7	0.13281618
35	0x3e0f642c	0.14003056
36	0xbe4e80d1	-0.20166327
37	0xbe93adc9	-0.28843525
38	0x3ce56694	0.028003015
39	0x3e13c04d	0.14428826
40	0xbd44c158	-0.04803595
41	0x3e128e41	0.14312078
42	0x3c51b69e	0.012799887
43	0xbd90be12	-0.07067503
44	0x3e42b638	0.19014823
45	0xbde64bc5	-0.11244921
46	0xbe70a7f6	-0.23501572
47	0xbe411efe	-0.18859479
48	0xbce33b2a	-0.027738173
49	0xbe3323a3	-0.17494063
50	0xbd77baa4	-0.06048073
51	0x3e1cd320	0.15314913
52	0x3e3ee99b	0.18643801
53	0x3e5ea82d	0.21743841
54	0x3e50613f	0.20349596
55	0x3e316a4c	0.17325705
56	0x3e34d4e6	0.1765934
57	0x3e7325ca	0.23744884
58	0x3d80f15d	0.062960364
59	0x3d2ca104	0.042145744
60	0xbd631cc5	-0.05544736
61	0x3e88c68e	0.26713985
62	0x3d2a439d	0.041568387
63	0x3e4fcb64	0.20292431
64	0x3e51d156	0.20490012
65	0xbe0a33b7	-0.1349629
66	0xbc69330d	-0.014233363
67	0x3cf4fe10	0.029906303
68	0xbe18ea54	-0.14933139
69	0x3e6f314e	0.23358652
70	0xbe0f8bd2	-0.14018181
71	0x3e359f02	0.17736438
72	0xbdb42bb5	-0.08797399
73	0x3c00a2c4	0.007851306
74	0xbcc73044	-0.024315007
75	0xbdc88f1a	-0.097929195
76	0xbe24846d	-0.16066141
77	0xbb3442c5	-0.0027505618
78	0xbe230158	-0.15918481
79	0x3d17a094	0.037018374
80	0xbe32f472	-0.17476061
81	0x3d113140	0.03544736
82	0xbe38b470	-0.18037581
83	0xbe647511	-0.22310282
84	0xbe034f79	-0.12823285
85	0x3db98453	0.09058442
86	0xbdfeff2e	-0.124510154
87	0xbda9ae8a	-0.08285244
88	0x3e14bebc	0.14525884
89	0x3dd30a80	0.10304737
90	0xbda22e62	-0.07919003
91	0xbd1de043	-0.03854395
92	0xbe688ab1	-0.22709157
93	0x3dc099e3	0.094043516
94	0xb9f98d84	-0.00047598418
95	0x3dafdc65	0.08586959
96	0x3e26a4bf	0.16273783
97	0x3de0a794	0.10969463
98	0xbdd8c509	-0.105844565
99	0x3d19979d	0.037498105
100	0x3c76344b	0.015027116
101	0xbd81f4d8	-0.06345528
102	0x3e6038b8	0.21896636
103	0x3e3214ec	0.17390794
104	0xbe4d6eb2	-0.20061758
105	0x3e03dcf2	0.12877253
106	0x3e3133c3	0.17304902
107	0xbddd0353	-0.1079165
108	0x3e1baa75	0.15201743
109	0xbce99697	-0.02851419
110	0xbda7a01e	-0.08184837
111	0xbcf7014f	-0.030151991
112	0xbd3d30cc	-0.046189114
113	0xbe26fc2e	-0.16307136
114	0xbe00af27	-0.12566815
115	0x3d47daf2	0.048792787
116	0x3d33d3e2	0.04390324
117	0xba94d892	-0.0011356047
118	0xbe3062dd	-0.17225213
119	0xbe44b66c	-0.19210213
120	0xbe2902f1	-0.16505028
121	0x3ddf21d0	0.10895121
122	0xbdf7f1cb	-0.12106665
123	0x3d8cd189	0.06875903
124	0x3cccc0c9	0.02499427
125	0xbc8c9c28	-0.017164305
126	0x3de2f2a0	0.11081433
127	0x3e1fe505	0.15614708
128	0x3cb19cff	0.021681307
129	0x3e20b781	0.15695001
130	0xbe1647b9	-0.14675798
131	0x3e310fa3	0.17291121
132	0xbbc1fe4f	-0.0059202085
133	0xbd9023fe	-0.07038115
134	0xbd97f003	-0.074188255
135	0x3e92079c	0.2852143
136	0x3cab52ad	0.020913446
137	0x3e8840e2	0.26612002
138	0x3e502bb9	0.20329179
139	0x3e243c4c	0.16038626
140	0xbdbd79f1	-0.09251774
141	0x3e274ae5	0.16337164
142	0x3d1b288c	0.037880465
143	0x3d85d242	0.06534244
144	0x3d33f946	0.043938898
145	0x3d619b61	0.05507982
146	0xbd80a6e4	-0.06281832
147	0xbc2e5f7e	-0.010642884
148	0xbcd6547f	-0.026163338
149	0x3ce88c7a	0.028387297
150	0xbc88aa42	-0.016682748
151	0x3e2abb4d	0.16673012
152	0x3d8a3d6b	0.06749996
153	0xbdca8763	-0.09889104
154	0x3e516edc	0.20452446
155	0x3e5b1bbd	0.213973
156	0x3dbb1110	0.09134114
157	0xbd7555ed	-0.0598964
158	0x3db08f5e	0.08621095
159	0x3c67fd99	0.0141595835
160	0xbcb7efee	-0.022453275
161	0x3e1baa30	0.1520164
162	0xbdd0d9ee	-0.10197817
163	0x3da799fd	0.08183668
164	0x3d67ae14	0.0565625
165	0x3e097ac2	0.13425735
166	0x3dfcde75	0.12347118
167	0xbbf0d0d8	-0.007349115
168	0xbe11f7e9	-0.14254726
169	0xbdba263e	-0.09089325
170	0xbe29719f	-0.1654725
171	0xbe643b3a	-0.22288218
172	0xbdea5450	-0.114418626
173	0xbbafd7c3	-0.005366297
174	0x3dd2d38d	0.10294256
175	0x3c39a75b	0.011331405
176	0xbe095740	-0.1341219
177	0x3d4051c1	0.046952967
178	0x3d99edb8	0.075160444
179	0x3d7efaac	0.062250778
180	0xbde3b8e2	-0.11119248
181	0x3ddf6e5d	0.10909722
182	0x3e0cb1ec	0.13739747
183	0x3d3f12a1	0.046648625
184	0x3e0ae9b5	0.13565715
185	0xbd3ec3dc	-0.046573505
186	0xbd460f8f	-0.04835468
187	0xbd8e10d6	-0.06936805
188	0xbd8dc5f5	-0.06922523
189	0xbc18e278	-0.009331338
190	0x3d9408f4	0.0722827
191	0x3de10b0e	0.10988437
192	0x3d95eff6	0.073211595
193	0xbe002006	-0.12512216
194	0x3c708c61	0.014681906
195	0xbd3899d1	-0.045068566
196	0x3da3110f	0.07962238
197	0x3d39be51	0.045347515
198	0x3e0719e8	0.13193476
199	0x3e5034f3	0.20332699
200	0x3d84b017	0.06478899
201	0x3debc213	0.11511626
202	0x3db1ac53	0.08675446
203	0x3d892d52	0.06698097
204	0x3e777d63	0.24168925
205	0x3e156dd6	0.1459268
206	0x3d6a8a66	0.057260893
207	0x3daad97a	0.083422616
208	0x3cbb4be8	0.022863343
209	0x3cf4bb94	0.0298746
210	0x3e2acc86	0.16679582
211	0xbdc83501	-0.09775735
212	0x3cabe234	0.020981885
213	0xbd2c695d	-0.04209267
214	0x3de18d0d	0.110132314
215	0x3e381d46	0.17979917
216	0xbba389d3	-0.004990795
217	0x3e5b4016	0.21411166
218	0x3db81f2e	0.08990322
219	0x3d58aad0	0.052897274
220	0x3e0c54a7	0.13704167
221	0x3e898ebb	0.26866707
222	0xbcbb3874	-0.022854067
223	0x3d6bcab2	0.057566352
224	0x3e6fb2dd	0.23408075
225	0xbd0df23c	-0.03465484
226	0xbd951c74	-0.07280818
227	0x3dc65428	0.0968402
228	0x3e01cede	0.1267657
229	0x3e1cbed2	0.15307167
230	0xbd8fb96c	-0.07017788
231	0x3e1a9cde	0.15098903
232	0xbd910587	-0.070811324
233	0x3e7548d0	0.23953557
234	0xbe7424d0	-0.23842168
235	0x3d5d9604	0.054098144
236	0xbe680897	-0.22659527
237	0x3d7e6aaf	0.06211346
238	0xbc898e8c	-0.016791604
239	0x3d7a712f	0.061143097
240	0x3e2dc93e	0.16971299
241	0xbddcf5e6	-0.10789089
242	0x3ddb59ec	0.107105106
243	0xbe8c952f	-0.27457568
244	0x3e439d65	0.1910301
245	0xbba2a285	-0.0049632215
246	0xbe99c695	-0.3003432
247	0x3e3295b9	0.17439927
248	0x3dfabf40	0.12243509
249	0xbd375a12	-0.044763632
250	0x3db0b08d	0.086274244
251	0x3e2f5fd5	0.17126401
252	0xbe275265	-0.16340025
253	0xbd8b72c2	-0.06808998
254	0x3df4f6a3	0.11961105
255	0xbe2695c6	-0.16268072

conv1.0.bias f4 [32]
0	0xbe686cb7	-0.22697721
1	0x3ea21679	0.3165777
2	0xbd3f99a6	-0.04677739
3	0x3e69192a	0.22763506
4	0x3e5fb912	0.21847942
5	0xbe4b4493	-0.19850378
6	0x3e85e791	0.26153234
7	0xbe25b77c	-0.16183275
8	0x3dae148a	0.08500011
9	0x3dd008ff	0.10157966
10	0x3e9c3b34	0.30513918
11	0xbe2e2eb8	-0.1701001
12	0x3e298021	0.16552784
13	0x3e8897ef	0.26678416
14	0x3e20acca	0.15690914
15	0xbe1f05c3	-0.15529542
16	0x3e4e63a2	0.20155194
17	0x3e23c66f	0.15993665
18	0xbe5995f9	-0.21248616
19	0xbdfad48b	-0.122475706
20	0xbdcb993a	-0.09941335
21	0xbdf11083	-0.117707275
22	0xbc85232c	-0.016252123
23	0xbe51b3ef	-0.20478795
24	0xbc53b667	-0.012921906
25	0x3d576b4e	0.052592568
26	0x3e92c0f2	0.2866283
27	0x3e45c5d8	0.19313753
28	0x3e535bb9	0.20640458
29	0x3e878499	0.2646835
30	0x3df32fdf	0.11874365
31	0x3e1b2565	0.15150984

conv2.0.weight f4 [16, 32, 3, 3]
0	0xbd11103f	-0.035415884
1	0xbd570e11	-0.05250365
2	0x3d8faa4e	0.07014905
3	0xbd757c32	-0.059932895
4	0x3c1775aa	0.009244362
5	0x3d25c6f5	0.040472943
6	0xbd3e9d5d	-0.046536792
7	0xbd0cda6e	-0.034388
8	0xbcb57b0e	-0.022153404
9	0x3d8cf46e	0.06882559
10	0x3c6255b6	0.01381438
11	0x3d60a024	0.054840222
12	0xbd3b828d	-0.0457788
13	0x3c9ed9fb	0.01939105
14	0x3d43b507	0.047780063
15	0xbc83f2a9	-0.01610692
16	0x3dcd86d2	0.100354806
17	0x3e1f4653	0.1555417
18	0x3a1bb9ce	0.0005940468
19	0x3dd0b1c2	0.101901546
20	0x3d73e6fa	0.05954645
21	0x3cb93bfc	0.02261161
22	0x3d09d242	0.033647783
23	0x3d5db383	0.054126274
24	0xbc94b105	-0.018150816
25	0x3c640f60	0.013919681
26	0x3d7497be	0.059715025
27	0xbd839d0a	-0.06426437
28	0xbd04edc1	-0.032453302
29	0x3c7afd7f	0.015319227
30	0xbd6626a1	-0.056189183
31	0x3b944396	0.0045246584
32	0xbd99518f	-0.07486259
33	0xbd7ef98d	-0.06224971
34	0xbce55e38	-0.027999029
35	0xbd64f136	-0.0558941
36	0x3d0547c4	0.032539144
37	0x3dbb8151	0.091555245
38	0x3c79d09e	0.015247492
39	0xbd0ba3ff	-0.034091946
40	0xbb205513	-0.002446477
41	0x399d0460	0.00029948633
42	0x3d34305e	0.04399144
43	0x3d6e4290	0.058168948
44	0xbb117015	-0.002219205
45	0xbd02b62d	-0.031912018
46	0xbccdbfe6	-0.025115918
47	0xbacc656b	-0.001559419
48	0x3d644e54	0.055738762
49	0x3d39dea8	0.045378357
50	0xbcc3dcf0	-0.023909062
51	0xbc4fa6d7	-0.012674055
52	0x3c3fca62	0.011705967
53	0x3d490137	0.049073424
54	0x3c982cae	0.018575992
55	0x3c97aac9	0.018514054
56	0xbbcaf5c2	-0.0061938474
57	0xbd36c520	-0.044621587
58	0x3dcbf375	0.09958545
59	0x3ced723a	0.028985132
60	0xbd509029	-0.05091873
61	0x3d53d34f	0.05171519
62	0x3b3e5a68	0.0029045586
63	0x3bdbea37	0.00671127
64	0x3c0bb327	0.0085266
65	0xbabc6a49	-0.0014374937
66	0x3d675ee9	0.056486998
67	0x3c8dec92	0.01732472
68	0xbd278023	-0.040893685
69	0xbd0cdc61	-0.034389857
70	0x3d1b9359	0.03798232
71	0xbd117d0d	-0.03551965
72	0x3ce258b6	0.027630191
73	0xbc31e15c	-0.0108569525
74	0xbc140b58	-0.009035908
75	0x3d457da2	0.048215516
76	0xbcfce9d5	-0.030873219
77	0xbd4fb0f5	-0.05070587
78	0x3bea44b7	0.0071493047
79	0xbcde5f10	-0.027144939
80	0x3ce0df1d	0.027450139
81	0x3e09dc41	0.13462926
82	0x3d2e50ca	0.042557515
83	0x3e3a737a	0.18208113
84	0x3c23827e	0.009979842
85	0xbc4124f4	-0.0117885955
86	0x3e3c5c27	0.18394528
87	0x3dc10da9	0.094264336
88	0x3df1dc0f	0.11809551
89	0x3df3e546	0.11908965
90	0x3da81b9d	0.08208392
91	0x3e3b72e8	0.18305552
92	0x3d9baba0	0.07601094
93	0x3def9c98	0.1169979
94	0x3de53aff	0.11192893
95	0x3e31ec36	0.17375264
96	0x3dd35d3e	0.10320519
97	0x3e0a0db8	0.13481796
98	0x3dc0ec83	0.09420111
99	0x3dc2ef64	0.095183164
100	0x3d8af1a1	0.06784368
101	0x3cd9f03f	0.026603816
102	0xbb28dbef	-0.0025765856
103	0x3d526035	0.05136128
104	0x3db0488a	0.08607586
105	0x3d863ee7	0.065549664
106	0x3d06ff79	0.03295848
107	0x3c358505	0.011079078
108	0xbb3802a1	-0.0028077739
109	0x3c4e103c	0.012577113
110	0x3c1da9c2	0.009622993
111	0xbda2f9c7	-0.079577975
112	0xbca55e49	-0.02018656
113	0xbd989fb8	-0.07452339
114	0xbd8f736c	-0.07004437
115	0xbd715a2c	-0.058923885
116	0x3cd448d1	0.025913628
117	0x3dc2b196	0.09506528
118	0x3e371023	0.1787725
119	0x3dc36e95	0.09542576
120	0x3da0da4c	0.07854137
121	0x3e32dde1	0.17467453
122	0x3df14426	0.117805764
123	0x3d433bc9	0.047664437
124	0x3d15d7d7	0.036582794
125	0x3dcf3f04	0.10119441
126	0xbb37a707	-0.002802314
127	0xbc302f76	-0.010753503
128	0xbcbf541f	-0.023355542
129	0xbcc89fb8	-0.024490222
130	0x3d42bae6	0.04754152
131	0x3cb58563	0.02215833
132	0x3c80eaf7	0.01573704
133	0x3ba74939	0.0051051644
134	0x3da1aa0b	0.07893761
135	0x3c333aa4	0.010939274
136	0x3ce1ebb6	0.027578216
137	0xbbbe77c8	-0.005812619
138	0xbd36e5cc	-0.044652745
139	0xbd600771	-0.054694597
140	0xbd21f00f	-0.03953558
141	0x3d200de9	0.039075766
142	0x3c8533ce	0.016260054
143	0xbd07d489	-0.033161674
144	0x3e0a4b37	0.13505255
145	0x3dc17f30	0.09448087
146	0x3e080da7	0.13286458
147	0x3dc3cdc0	0.09560728
148	0x3e2ccd2d	0.16875143
149	0x3dc78462	0.09742047
150	0x3d9a780d	0.07542429
151	0x3d9a9de6	0.07549648
152	0x3ddbcb2e	0.10732113
153	0x3db1d595	0.08683316
154	0x3d96d856	0.073654816
155	0x3e4f251f	0.20229004
156	0x3c40addc	0.011760201
157	0x3d010445	0.031498212
158	0x3e63d74d	0.222501
159	0x3d88e5ba	0.06684442
160	0x3dbef76e	0.09324537
161	0x3e2e81b1	0.17041661
162	0x3d358b3b	0.044322234
163	0x3d77851c	0.060429677
164	0xbd10a77b	-0.03531597
165	0xbd91164c	-0.07084331
166	0x3d051c66	0.032497786
167	0x3b67ebf0	0.0035388432
168	0xbd9ece99	-0.07754249
169	0x3c9dc5b8	0.019259319
170	0x3d6458bd	0.05574869
171	0x3d73084f	0.059334096
172	0x3bf302c5	0.0074161016
173	0xbcc4bbd2	-0.024015341
174	0xbc907062	-0.017631713
175	0xbb22e1a2	-0.0024853726
176	0xbc1aa134	-0.009437848
177	0x3ca7c49e	0.020479497
178	0xbd4809af	-0.04883736
179	0xbd40d274	-0.047075704
180	0x3da79106	0.08181958
181	0x3b5e9d34	0.0033968212
182	0x3dede376	0.1161565
183	0x3d43d1a5	0.047807354
184	0xbd5e26c9	-0.054236207
185	0x3da21d91	0.079157956
186	0xbc1390d4	-0.009006698
187	0x3d5d3435	0.054004867
188	0x3e25c936	0.16190037
189	0x3c4b50fa	0.012409443
190	0x3d265075	0.040604074
191	0xbcd17e39	-0.025572883
192	0xbc320ac6	-0.010866826
193	0x3c5e6d0c	0.0135758035
194	0x3ccde907	0.02513553
195	0x3d2594a0	0.040424943
196	0x3d611e8d	0.054960776
197	0x3d59a561	0.053136233
198	0x3d1695fb	0.036764126
199	0x3d950ad3	0.07277455
200	0x3d04e463	0.03244437
201	0x3d88422a	0.06653245
202	0x3cc7f12d	0.024406994
203	0x3d38155c	0.044942245
204	0x3d63d649	0.05562428
205	0x3c9dac73	0.01924727
206	0x3dd90bb1	0.10597933
207	0xbd027f1a	-0.031859495
208	0xbd5a886f	-0.05335277
209	0x3bbbb422	0.0057282606
210	0x3d4dac86	0.05021336
211	0xbccc959d	-0.024973685
212	0xbd285daf	-0.04110497
213	0xbc37a12d	-0.011207861
214	0x3d824362	0.063605085
215	0xba2fb4cd	-0.00067026616
216	0xbc99660f	-0.018725423
217	0x3d73c62e	0.05951517
218	0x3c7021f1	0.01465653
219	0x3d206960	0.039162993
220	0x3cad3f02	0.021148209
221	0x3d2043bf	0.039127108
222	0xbd2f8a86	-0.042856716
223	0x3b99ddb0	0.0046956167
224	0x3b9fb4aa	0.0048738318
225	0x3d38a422	0.045078404
226	0x3c922109	0.017838018
227	0xbc6290e0	-0.013828486
228	0xbd301a36	-0.042993747
229	0xbd53d7b1	-0.05171937
230	0x3d4633a7	0.048389103
231	0x3cff37a3	0.03115446
232	0x3d851763	0.06498601
233	0x3d5bbb6c	0.053645536
234	0xbc37606b	-0.011192421
235	0x3da4b1aa	0.08041699
236	0x3dc57b47	0.09642654
237	0xbb7d2950	-0.003862936
238	0x3dc29e97	0.09502905
239	0x3d2fe85d	0.04294621
240	0x3d6de41c	0.05807887
241	0x3e0b7c51	0.13621642
242	0x3dc574de	0.09641431
243	0x3cddc4c1	0.027071359
244	0x3d7aa100	0.061188698
245	0x3d05c117	0.032654848
246	0x3d305a30	0.04305476
247	0x3e03a521	0.1285596
248	0x3d911a2c	0.0708507
249	0x3d886e3d	0.06661651
250	0x3d373787	0.04473069
251	0x3de67c7f	0.112542145
252	0x3d6118dd	0.054955352
253	0x3c1b48a2	0.009477766
254	0x3c9306f2	0.017947648
255	0xbd5d47db	-0.054023605

conv2.0.bias f4 [16]
0	0xbdb8ea49	-0.09029061
1	0x3bd2700e	0.0064220494
2	0xbd87d843	-0.066330455
3	0xbd3896b4	-0.045065597
4	0x3c06c7bd	0.008226332
5	0xbd345203	-0.044023525
6	0xbdd8a360	-0.10578036
7	0xbd6c6adf	-0.057719108
8	0xbd0478f8	-0.032341927
9	0xbd7974d7	-0.060902443
10	0x3d1f1f8e	0.038848452
11	0x3c8800fe	0.016602036
12	0x3e12765c	0.14302963
13	0xbb836b9e	-0.0040106317
14	0x3d9dd761	0.07707096
15	0x3df0fa20	0.117664576

fc1.1.weight f4 [3, 560]
0	0x3dad090a	0.0844899
1	0x3c6b1189	0.014347442
2	0xbc3ead23	-0.011637959
3	0xbd2803c8	-0.04101923
4	0xbd41458f	-0.047185477
5	0xbd8a28d7	-0.06746071
6	0x3b098188	0.0020981748
7	0xbc0318d6	-0.008001527
8	0x3c6ab0e8	0.014324404
9	0x3c17e367	0.009270526
10	0x3d3f8f01	0.04676724
11	0xbd1068c7	-0.035256173
12	0x3c96253a	0.018328298
13	0x3d0f1652	0.034933396
14	0x3d92fcb5	0.07177106
15	0xbb8ae93e	-0.0042392304
16	0x3cb4a108	0.022049442
17	0xbd512a74	-0.051065877
18	0xbd1f5e82	-0.03890849
19	0x3d1f9b29	0.03896633
20	0x3c2bd709	0.01048828
21	0xba870a43	-0.0010302741
22	0xbcb8bee2	-0.022551958
23	0xbb8d263e	-0.0043075373
24	0x3d4f426b	0.05060045
25	0x3b5cf1f3	0.003371355
26	0xbc2017cc	-0.009771299
27	0xba7ad4b0	-0.0009568436
28	0x3d853237	0.06503718
29	0xbd2be1df	-0.041963454
30	0x3be4e81f	0.006985679
31	0xbd1dcad5	-0.038523514
32	0x3c7c6831	0.015405701
33	0xbd76f177	-0.060288873
34	0x3c85cabf	0.016332028
35	0x3da3d1b5	0.07998983
36	0x3cc15c35	0.023603538
37	0x3d0f4444	0.034977213
38	0x3d9a650c	0.075388044
39	0x3dbeaf11	0.09310735
40	0xbc42274c	-0.011850189
41	0x3bbdb6e0	0.0057896227
42	0xbce49a8e	-0.027905729
43	0x3d31153d	0.043233145
44	0xbbcf6dfb	-0.0063302494
45	0x3d42da7d	0.047571648
46	0x3add3f16	0.0016879763
47	0xbdb665fb	-0.0890617
48	0xbc3dc920	-0.0115835965
49	0x3d1117a3	0.035422932
50	0xbd4c37cc	-0.0498579
51	0xbcdd482f	-0.027011959
52	0xbdaa78c9	-0.08323819
53	0xbd79729e	-0.060900323
54	0xbd99bca7	-0.07506686
55	0x3b95eec0	0.0045755804
56	0x3c096a34	0.008387137
57	0xbb512ea7	-0.0031918676
58	0x3d5b3818	0.053520292
59	0x3cc01989	0.023449676
60	0x3991020e	0.00027658086
61	0xbd6a032e	-0.05713194
62	0xbd2feaa2	-0.042948373
63	0xbd2750c9	-0.040848527
64	0xbcda700f	-0.026664762
65	0x3d48ead4	0.049052075
66	0xbcd3ccb0	-0.025854439
67	0x3c31cca6	0.010852015
68	0xbb86569b	-0.0040996796
69	0xbbac5787	-0.0052594575
70	0x3cd44d3e	0.025915738
71	0x3d283538	0.04106638
72	0x3ce0e955	0.027455011
73	0x3d6b2977	0.05741259
74	0xbd070eb8	-0.03297302
75	0x3b1faf9a	0.0024366141
76	0xbce1bb44	-0.027555116
77	0xbd0ae9ee	-0.0339145
78	0xbbde33f0	-0.006781094
79	0xbba01e9f	-0.004886463
80	0xbd21cb07	-0.039500263
81	0xbd23a11e	-0.039948575
82	0xbd24193f	-0.04006314
83	0x3aab9bb9	0.0013092674
84	0x3cb73b22	0.022367064
85	0xbba5b734	-0.00505724
86	0xbd880071	-0.06640709
87	0xbd3242eb	-0.04352085
88	0xbcb73413	-0.022363698
89	0x399bc3d2	0.000297098
90	0x3d7d5dfa	0.0618572
91	0xbcc57cc0	-0.024107337
92	0xbb2c7982	-0.0026317541
93	0xbc479a0e	-0.012182726
94	0x3d84dd1b	0.06487485
95	0x3d1833f5	0.037158925
96	0x3b5c6d11	0.0033634345
97	0x3d16deee	0.036833696
98	0xbc35864c	-0.011079382
99	0x3d19d0c9	0.03755263
100	0x3ba91052	0.0051594162
101	0x3c8cc880	0.01718545
102	0xbc36c463	-0.011155221
103	0x3d697402	0.0569954
104	0xbc8347ac	-0.016025387
105	0x3d64c2b9	0.055849764
106	0x3b48ffa8	0.003066996
107	0xbc2f3d79	-0.010695809
108	0xbd0a01c3	-0.033693086
109	0xbd187ad5	-0.037226517
110	0xbc92d927	-0.017925812
111	0xbcd6fdbf	-0.026244042
112	0xbc897a85	-0.016782055
113	0xbb9baef0	-0.004751079
114	0xbc091261	-0.008366198
115	0x3d4440b3	0.047913264
116	0xbd67d8ed	-0.05660336
117	0xbcbafc2e	-0.022825327
118	0x3cb6c355	0.022309938
119	0x3c221a41	0.009893955
120	0x3d27b691	0.040945593
121	0x3a1436f3	0.000565394
122	0x3ca22895	0.019794742
123	0xbcd16439	-0.025560485
124	0x3d2ea90d	0.04264169
125	0x3d5d42c1	0.05401874
126	0xbd5baf6b	-0.05363409
127	0xbd7aad35	-0.06120034
128	0xbc1a98d5	-0.009435852
129	0x3d4c05e4	0.049810305
130	0x3ced1a9d	0.028943354
131	0x3cb823b7	0.022477968
132	0x3b9bf792	0.0047597373
133	0x3cffd9cd	0.031231785
134	0xbbd505aa	-0.0065009193
135	0x3d0bb767	0.034110453
136	0x3d2b35b4	0.041799262
137	0x3cc50e7c	0.024054758
138	0x3c950b98	0.018194005
139	0x3c893e17	0.01675324
140	0x3cd4b1aa	0.025963623
141	0x3cd34baa	0.025792915
142	0x3cedbc69	0.029020505
143	0x3caa2b75	0.020772675
144	0xbcd2bc57	-0.025724573
145	0xbcc885a9	-0.024477797
146	0x3c129e01	0.008948804
147	0x3d0c99e6	0.034326456
148	0xbd0d7dff	-0.034543987
149	0xbd315846	-0.043297075
150	0xbd107f3f	-0.0352776
151	0x3beb91d8	0.007189017
152	0xbcd3a8d7	-0.025837345
153	0x3cca5717	0.02469973
154	0xbca139bc	-0.01968085
155	0xbd344243	-0.044008505
156	0xbc32b9e3	-0.010908577
157	0xbbf7ab28	-0.007558245
158	0x3cc94768	0.024570182
159	0x3c185602	0.00929785
160	0x3ca62b69	0.020284371
161	0xbc1241f5	-0.008926858
162	0x3cde91c1	0.02716911
163	0x3d07a129	0.03311268
164	0x3c85e48d	0.016344333
165	0xbccb6aeb	-0.024831256
166	0x3cece830	0.02891931
167	0xbcb5eab3	-0.02220664
168	0x3b409659	0.002938649
169	0x3c4436d9	0.011975967
170	0x3c5bd398	0.013417147
171	0xbb995100	-0.0046788454
172	0xbd32f86e	-0.043693952
173	0xbc3f9c76	-0.011695018
174	0xbd387e96	-0.045042597
175	0xbc5167df	-0.012781112
176	0x3c6f2aef	0.0145976385
177	0x3c41a267	0.011818505
178	0xbce107e6	-0.027469587
179	0xbbcef1cf	-0.006315447
180	0x3b5cf015	0.0033712436
181	0xbcfbcdf7	-0.03073786
182	0xbd310381	-0.043216232
183	0xbca9d4af	-0.020731298
184	0xbcf9da0c	-0.03049948
185	0xbbf0240e	-0.007328517
186	0x3cd7ee86	0.026358854
187	0xbd20684b	-0.03916196
188	0xbd2fd80c	-0.042930648
189	0xb9ba8c3e	-0.00035581173
190	0x3c529cf3	0.012854802
191	0xbc90833d	-0.017640704
192	0x3d09e350	0.033664048
193	0xbcc259cb	-0.023724457
194	0x3cf9339f	0.030420123
195	0x3a298583	0.0006466733
196	0x3a8c755b	0.0010716127
197	0x3b6951d2	0.0035601747
198	0x3cffcbc4	0.031225093
199	0x3c7db0df	0.015484064
200	0xbc251faf	-0.010078355
201	0xbd481184	-0.04884483
202	0xbcfe84be	-0.031069156
203	0xbc8328b0	-0.016010612
204	0x3bbfb6e8	0.0058506615
205	0xbcbf0526	-0.023317885
206	0xbd224a5b	-0.039621692
207	0xbd112352	-0.035434075
208	0xbad7f197	-0.0016475198
209	0xbd00fc24	-0.03149046
210	0x3d5f9079	0.05458114
211	0x3c234f89	0.009967693
212	0xbb9fa47a	-0.004871902
213	0xbd031c92	-0.03200967
214	0xbc59b921	-0.013288767
215	0xbd961e34	-0.073299795
216	0x3d09515e	0.033524863
217	0x3ca179e9	0.019711452
218	0xbcd6032f	-0.026124565
219	0x3bd7a7c0	0.0065812767
220	0xbc88bb90	-0.016691
221	0xbd00d33b	-0.031451445
222	0x3c9ea9a6	0.019368004
223	0xbd54dc41	-0.051967863
224	0xbd25e111	-0.040497843
225	0xbdce1cbb	-0.10064074
226	0xbce7b1f1	-0.028283091
227	0x3c729397	0.014805696
228	0xbd279c8c	-0.04092078
229	0xbd20fa5e	-0.03930127
230	0x3c9a2b3a	0.01881944
231	0x3d08c615	0.03339203
232	0xbcc7e94a	-0.024403233
233	0xbaeab2fe	-0.0017906127
234	0xbb849dc1	-0.004047126
235	0xbd0e9029	-0.03480545
236	0xbcf4e441	-0.029893996
237	0x3c58c83f	0.013231336
238	0xbcab9904	-0.020946987
239	0x3cdb0625	0.026736328
240	0xbccc5955	-0.02494494
241	0x3c0fc179	0.008774155
242	0xbbc53fb9	-0.006019559
243	0x3d730ad3	0.059336495
244	0xbbe14380	-0.0068745017
245	0xbd5c0a47	-0.05372074
246	0xbdd62ffb	-0.1045837
247	0xbdd3aa8f	-0.10335266
248	0xbe16b791	-0.14718463
249	0xbe23d6a5	-0.15999849
250	0xbd903173	-0.07040682
251	0xbc7d5f4c	-0.015464615
252	0x38af0ef7	8.347438e-05
253	0xbd1142cb	-0.03546409
254	0xbdca9282	-0.098912254
255	0xbc4e3612	-0.012586134

fc1.1.bias f4 [3]
0	0x3d85620d	0.06512842
1	0xbcbcc796	-0.023044389
2	0xbd2b567e	-0.041830532
