data-science/cnn/model_0/model.pt (torch, 30855 bytes, 6 tensors)

conv1.0.weight f4 [32, 3, 3, 3]
0.009212172 -0.049396947 -0.18085933 0.05594334 -0.18002549 0.055979293 0.007167582 -0.048631728
-0.07820444 0.044487163 0.025339475 -0.1680698 0.16116443 -0.05365932 0.0075787203 -0.15479517
-0.11720911 0.092585236 -0.16566081 -0.086398035 -0.14384352 -0.07229177 0.0060025794 0.17805699
-0.037981514 -0.04509075 -0.025278725 0.14772789 0.0016150204 0.03313953 0.11187642 -0.07381271
-0.017554296 0.09202446 -0.028860537 0.11975469 0.18923084 -0.14436895 0.13858469 0.059688013
0.08178987 0.008660201 0.123611264 0.14292891 -0.054027822 0.08906793 -0.17280178 0.03743152
0.055639047 -0.13195997 -0.114518546 0.15654396 -0.084736116 -0.014437364 -0.04977374 -0.14390843
0.16970912 0.16331027 0.03047635 0.02405955 0.053008806 0.024524113 0.07096737 0.21230742
0.0034304054 0.17576192 0.183213 -0.027203297 -0.16450827 0.15228802 -0.1429375 0.11657752
0.16845903 -0.021088814 -0.06179705 -0.077683166 0.0044055954 0.12839654 -0.17985512 -0.089747176
0.1150419 0.060317874 0.09091082 -0.11998233 -0.1259345 0.11543911 -0.10260212 -0.08089819
-0.11717923 0.10444417 -0.003159693 0.105093144 0.024648752 -0.15509981 -0.1519052 0.04526942
0.11937145 0.04658324 -0.15415184 -0.1902612 -0.120540775 0.022161607 -0.1257717 -0.11627797
0.16356705 0.12438077 0.16944993 -0.079635344 -0.12380839 0.07477293 0.027733319 -0.0951499
-0.1403449 -0.034695793 0.13383071 -0.13701011 -0.005419179 0.06470735 0.15543465 -0.153811
0.08396279 -0.021847012 -0.012246255 -0.1512557 -0.023187269 0.14174478 0.1861046 -0.029616725
-0.016025947 -0.14425907 0.004622396 0.059512127 0.040719356 -0.13216358 0.15177369 -0.14410175
-0.17675817 -0.08428167 -0.11722671 -0.15647249 -0.09759921 0.15925601 0.15838408 -0.17170729
-0.1884034 0.1874126 0.09595039 -0.008980292 0.01810492 0.14164698 0.114317216 0.059797537
-0.10246189 0.079245694 0.07824501 0.18199013 -0.17271921 -0.1738063 0.03165619 0.13767835
-0.019179787 -0.06595773 0.055915635 -0.07242777 0.14765495 0.08372757 -0.06868276 0.09080283
0.019540442 -0.021008793 -0.090451315 0.11754752 0.14298867 -0.17300263 -0.05770561 -0.059419435
-0.0389486 -0.011128021 -0.021177515 -0.0957292 -0.05007311 -0.17975327 0.19015114 -0.019986074
0.067173906 0.054097645 -0.17374766 -0.016059496 -0.1164612 -0.08493107 -0.11171678 -0.18774852
-0.13896666 0.18054217 0.1822213 -0.16692118 -0.09482845 -0.071784 -0.03160726 0.17788967
-0.18878809 0.08743423 -0.011838161 0.036738902 0.0789051 -0.06981111 0.15718974 0.17958441
0.016286496 -0.07901025 0.16395524 -0.03700782 0.062360074 -0.19072151 -0.17522448 -0.07591415
-0.047508124 -0.009939605 -0.07697451 -0.014819874 0.022686018 0.018324198 0.1584585 0.025048276
0.07461381 -0.060207408 0.14785022 -0.056435484 0.17548276 0.16964711 -0.12112803 -0.1328566
0.13184707 0.025029391 0.043440696 0.15958007 -0.114307955 -0.07356768 -0.06595018 0.11020797
-0.009359848 0.051699296 0.09592434 0.18448919 -0.007933049 -0.072438575 -0.053642854 0.11757433
0.2096057 0.07342737 0.19236813 0.15302289 0.09915604 -0.14511146 0.1843937 -0.06104756
00000000: a6ee 163c 7454 4abd 3033 39be d824 653d
00000010: 9a58 38be 8b4a 653d 09de ea3b 1032 47bd
00000020: a629 a0bd 2c38 363d bb94 cf3c 7d1a 2cbe
00000030: 4a08 253e e0c9 5bbd ea56 f83b a082 1ebe
00000040: 540b f0bd 549d bd3d fda2 29be 74f1 b0bd
00000050: b74b 13be b50d 94bd 49b1 c43b 9254 363e
00000060: 8192 1bbd 14b1 38bd 5415 cfbc fb45 173e
00000070: 18af d33a 51bd 073d 771f e53d 1e2b 97bd
00000080: 07ce 8fbc 5277 bc3d ef6c ecbc f241 f53d
00000090: bbc5 413e 74d5 13be 25e9 0d3e 6b7b 743d
000000a0: 7381 a73d 84e3 0d3c e727 fd3d f55b 123e
000000b0: 474c 5dbd 3f69 b63d f3f2 30be cb51 193d
000000c0: c5e5 633d 8420 07be b388 eabd 0f4d 203e
000000d0: 218a adbd b28a 6cbc 8ddf 4bbd bb5c 13be
000000e0: 3ac8 2d3e cf3a 273e 8aa9 f93c 8918 c53c
000000f0: c31f 593d cbe6 c83c 5757 913d 1e67 593e
00000100: a7d0 603b effa 333e 309c 3b3e 73d9 debc
00000110: db74 28be 64f1 1b3e 355e 12be 32c0 ee3d
00000120: 8680 2c3e 73c2 acbc e71e 7dbd 5a18 9fbd
00000130: d05c 903b 627a 033e f12b 38be 5ecd b7bd
00000140: 169b eb3d e00f 773d 742f ba3d 4cb9 f5bd
00000150: f9f4 00be 576b ec3d 0f21 d2bd f3ad a5bd
00000160: aafb efbd d3e6 d53d da12 4fbb 133b d73d
00000170: 2eec c93c 7cd2 1ebe 098d 1bbe 6d6c 393d
00000180: 0579 f43d 11ce 3e3d fbd9 1dbe d5d3 42be
00000190: 15de f6bd 428c b53c 4cca 00be 2523 eebd
000001a0: 1f7e 273e 58bb fe3d 4884 2d3e db17 a3bd
000001b0: 418f fdbd 8d22 993d fc30 e33c f3dd c2bd
000001c0: 93b6 0fbe 2d1d 0ebd eb0a 093e 614c 0cbe
000001d0: 5e93 b1bb 4a85 843d 432a 1f3e a180 1dbe
000001e0: aff4 ab3d 81f8 b2bc 84a4 48bc c6e2 1abe
000001f0: 3af3 bdbc 8b25 113e 3492 3e3e c69e f2bc
00000200: d948 83bc a6b8 13be 7877 973b fdc2 733d
00000210: 57c9 263d e455 07be 906a 1b3e 698f 13be
00000220: 1800 35be de9b acbd 8f14 f0bd 533a 20be
00000230: 18e2 c7bd 0214 233e 702f 223e 09d4 2fbe
00000240: d2ec 40be 17e9 3f3e a381 c43d 1322 13bc
00000250: c550 943c e80b 113e 251f ea3d 43ee 743d
00000260: 8ad7 d1bd 914b a23d eb3e a03d 9f5b 3a3e
00000270: 4edd 30be 47fa 31be eca9 013d 8efb 0c3e
00000280: ee1e 9dbc d914 87bd cb07 653d 0355 94bd
00000290: dc32 173e 5c79 ab3d 8ca9 8cbd d6f6 b93d
000002a0: 4713 a03c a21a acbc 8a3e b9bd c1bc f03d
000002b0: 9f6b 123e 9a27 31be b85c 6cbd cb61 73bd
000002c0: 9188 1fbd 4e52 36bc 787c adbc ac0d c4bd
000002d0: 7619 4dbd 3e11 38be fbb6 423e d6b9 a3bc
000002e0: 7992 893d 7e95 5d3d e8ea 31be 348f 83bc
000002f0: 3683 eebd 57f0 adbd c4cb e4bd 2641 40be
00000300: 474d 0ebe 0ce0 383e 3898 3a3e 63ed 2abe
00000310: 6b35 c2bd 7d03 93bd 9d76 01bd b628 363e
00000320: aa51 41be b810 b33d d9f4 41bc 887b 163d
00000330: ff98 a13d 21f9 8ebd 59f6 203e fae4 373e
00000340: 426b 853c 20d0 a1bd e2e3 273e 8395 17bd
00000350: 476d 7f3d 804c 43be 0c6e 33be e178 9bbd
00000360: e197 42bd bad9 22bc d0a4 9dbd 0fcf 72bc
00000370: 07d8 b93c a11c 963c f242 223e 0b32 cd3c
00000380: 20cf 983d 0b9c 76bd 0c66 173e e528 67bd
00000390: c1b1 333e f9b7 2d3e f911 f8bd 900b 08be
000003a0: eb02 073e 700a cd3c dfee 313d f568 233e
000003b0: 4a1a eabd a7aa 96bd e310 87bd b7b4 e13d
000003c0: 0c5a 19bc a4c2 533d fb73 c43d bcea 3c3e
000003d0: 9ff9 01bc ad5a 94bd 9cb8 5bbd cfca f03d
000003e0: e0a2 563e 1761 963d 27fc 443e 08b2 1c3e
000003f0: 5212 cb3d 1998 14be b4d1 3c3e 020d 7abd

conv1.0.bias f4 [32]
0.09860817 0.049443126 -0.045754977 -0.05392925 0.17804305 -0.0011781064 0.17310566 0.1787758
0.029323785 -0.06032159 0.046672273 -0.024569461 -0.17433573 -0.10975173 0.03229847 -0.04377264
0.1897355 -0.05587149 -0.038131084 -0.021766672 -0.030600552 -0.1538503 0.032454576 0.062228743
-0.012329467 0.009957551 -0.09001166 0.19355215 -0.059877783 0.117236845 -0.018549588 -0.15228274
00000000: 15f3 c93d e084 4a3d 9269 3bbd ebe4 5cbd
00000010: eb50 363e b16a 9aba 9c42 313e 0111 373e
00000020: 6f38 f03c c613 77bd 6d2b 3f3d e545 c9bc
00000030: 1185 32be 84c5 e0bd 674b 043d f14a 33bd
00000040: 064a 423e 81d9 64bd 572f 1cbd 0550 b2bc
00000050: 02ae fabc ef8a 1dbe 17ef 043d 91e3 7e3d
00000060: 8801 4abc ff24 233c 0858 b8bd 8932 463e
00000070: 6842 75bd df19 f03d 4ef5 97bc 02f0 1bbe

conv2.0.weight f4 [16, 32, 3, 3]
-0.02108076 -0.002102884 0.017085934 0.027993022 0.047886305 -0.029967908 -0.023352396 -0.02400358
0.02332523 -0.026330845 0.077488415 -0.030182255 -0.018649954 0.06104018 0.036769986 0.059663244
0.005123003 0.04618114 0.072100915 0.03527552 0.039208926 0.049442038 0.0020854238 0.040983494
-0.015063064 0.039099388 0.06756674 0.05001307 -0.037686314 -0.022299444 -0.04018418 -0.0019929532
-0.034983937 -0.02551045 0.026206268 0.007747609 0.0097275665 -0.022178646 0.0063335826 0.03121118
0.061239854 0.049578484 -0.027037969 0.025566038 -0.05829845 0.01643671 -0.04192801 -0.037529282
0.025640601 -0.049701232 0.06365025 0.028366903 0.047505844 0.050301343 -0.022691362 0.022205481
0.00011467667 0.032893777 0.03732052 0.019654803 -0.02974134 0.03893585 -0.013295084 -0.0039351843
0.02619242 0.010119099 0.033045966 -0.051899202 0.049618933 -0.047132373 0.00034371953 -0.05621153
-0.04131907 -0.0043968293 0.031950887 -0.00012348803 -0.00047766912 -0.0053499048 0.059791703 0.02464602
-0.014184484 0.00073362363 0.007349734 0.031509604 0.021529356 -0.028553188 0.057604957 0.07427189
0.02718739 -0.002953702 -0.0040205894 -0.016093552 0.02124907 -0.0024341769 -0.05680951 -0.048685502
0.016520066 -0.043327566 0.02518495 -0.012358136 -0.03337794 0.004095059 -0.043474656 -0.03123404
0.0071887528 -0.006578251 -0.020428015 -0.044307034 -0.0008066288 0.058682267 0.042018596 0.027414743
0.07962594 -0.034105215 0.07159482 -0.028770473 -0.003892074 -0.052858 0.01978318 -0.03247293
-0.05249662 0.04135869 6.712131e-05 -0.012004961 0.052568875 -0.03963393 -0.0485198 0.041419137
0.053364135 -0.041880794 0.018994935 -0.011031684 0.06560743 0.008718208 -0.013513308 0.07023674
0.024290476 0.0044870265 -0.0073671164 0.05657541 0.03866153 0.004102195 0.031036487 -0.031294625
0.0095839035 0.060274344 -0.013973056 0.055389166 0.028694987 -0.01593967 -0.019776968 0.05810835
0.0012533846 -0.038474888 0.03142343 -0.022103792 -0.024599241 0.055459872 -0.04500786 0.0278719
-0.034242835 -0.047054764 0.025024397 0.01824544 -0.030506006 0.038804613 -0.032676764 0.05215726
-0.026862439 -0.04640208 0.04728268 0.017134653 0.06923858 0.04015366 0.07409954 0.029643891
-0.0021974389 0.055851556 -0.040848717 -0.007786998 0.08770805 0.034159802 0.035372313 0.09256406
0.014539455 0.020180967 0.08181576 -0.016614918 0.05755978 -0.00042818073 0.028951798 0.053934056
0.01581619 -0.02286701 -0.0017571935 0.048731666 -0.04020963 0.011379889 0.013533444 -0.05123433
0.052634045 0.020421414 0.042651206 0.014308512 0.04961394 0.039619803 -0.002072832 0.0772378
0.08239334 0.03729263 0.026128452 0.05354944 0.009177871 0.039880812 -0.02813832 0.063251846
-0.033266034 0.048397273 0.031606775 -0.011023586 0.049175106 0.03089284 -0.050871775 -0.050657347
0.042452607 0.0119409375 0.036086746 -0.05653241 0.020247981 0.0021551135 0.039927598 0.009238133
0.00078506087 0.05339021 0.059872434 0.08627029 -0.0104286205 0.062866785 0.03574971 -0.00094999734
-0.028073413 0.049887408 0.0698678 -0.030141136 -0.037983365 -0.031693198 -0.044304855 -0.015611133
0.033113934 -0.049858943 -0.047789626 0.048485603 0.027926654 -0.031877216 0.05254874 0.04542825
00000000: 8fb1 acbc 8ad0 09bb cdf7 8b3c 9f51 e53c
00000010: 6e24 443d 427f f5bc 864d bfbc 28a3 c4bc
00000020: 8e14 bf3c c9b3 d7bc 3fb2 9e3d c740 f7bc
00000030: cac7 98bc 4505 7a3d 209c 163d 7261 743d
00000040: ddde a73b 6f28 3d3d a5a9 933d 107d 103d
00000050: 8a99 203d bc83 4a3d 9bab 083b 4fde 273d
00000060: 12cb 76bc ae26 203d 6e60 8a3d 81da 4c3d
00000070: f75c 1abd 53ad b6bc 2b98 24bd 359c 02bb
00000080: 514b 0fbd 4bfb d0bc 87ae d63c a8df fd3b
00000090: 5f60 1f3c feaf b5bc f189 cf3b 97ae ff3c
000000a0: a4d6 7a3d cf12 4b3d bb7e ddbc de6f d13c
000000b0: 5bca 6ebd 47a6 863c b4bc 2bbd 4eb8 19bd
000000c0: 3d0c d23c 8593 4bbd 105b 823d b561 e83c
000000d0: 7d95 423d c808 4e3d 3ce3 b9bc 45e8 b53c
000000e0: 927e f038 a0bb 063d 67dd 183d 1c03 a13c
000000f0: 1ca4 f3bc 337b 1f3d a0d3 59bc b8f2 80bb
00000100: 7c91 d63c 94ca 253c 355b 073d 4294 54bd
00000110: 393d 4b3d e00d 41bd 4135 b439 103e 66bd
00000120: 2f3e 29bd 4713 90bb efde 023d 917c 01b9
00000130: aa6f fab9 414e afbb 25e8 743d 73e6 c93c
00000140: 0a66 68bc a650 403a 0ad6 f03b 3710 013d
00000150: 555e b03c 60e8 e9bc 2df3 6b3d dc1b 983d
00000160: 17b8 de3c e592 41bb 26bf 83bb a0d6 83bc
00000170: 8812 ae3c b686 1fbb 17b1 68bd 736a 47bd
00000180: 1755 873c 3f78 31bd ab50 ce3c c779 4abc
00000190: 4fb7 08bd d82f 863b 7b12 32bd 88de ffbc
000001a0: a18f eb3b 5e8e d7bb a758 a7bc 4b7b 35bd
000001b0: f173 53ba d15c 703d b11b 2c3d e294 e03c
000001c0: ed12 a33d e9b1 0bbd 4ea0 923d 0eb0 ebbc
000001d0: 2b12 7fbb a181 58bd 5610 a23c 5602 05bd
000001e0: b206 57bd bb67 293d 7bc3 8c38 75b0 44bc
000001f0: 7652 573d 3057 22bd b3bc 46bd 1da7 293d
00000200: 5a94 5a3d 328b 2bbd 449b 9b3c 3cbe 34bc
00000210: 305d 863d d1d6 0e3c ec66 5dbc 48d8 8f3d
00000220: d2fc c63c e807 933b da67 f1bb 9ebb 673d
00000230: 8d5b 1e3d b56b 863b 3b40 fe3c cb2e 00bd
00000240: ce05 1d3c 3be2 763d 3fef 64bc c0df 623d
00000250: c011 eb3c e993 82bc 4f03 a2bc 0503 6e3d
00000260: 9c48 a43a d897 1dbd dbb5 003d 0313 b5bc
00000270: 5984 c9bc e429 633d 295a 38bd 9c53 e43c
00000280: 3742 0cbd 7fbc 40bd f7ff cc3c 7677 953c
00000290: bbe7 f9bc 96f1 1e3d 12d8 05bd daa2 553d
000002a0: 9e0e dcbc 1c10 3ebd 7cab 413d f95d 8c3c
000002b0: f5cc 8d3d 2a78 243d 80c1 973d bfd7 f23c
000002c0: e802 10bb 9ac4 643d fc50 27bd 132a ffbb
000002d0: 47a0 b33d 26eb 0b3d 8fe2 103d 3a92 bd3d
000002e0: e536 6e3c 8e52 a53c 058f a73d 021c 88bc
000002f0: cec3 6b3d 727d e0b9 522c ed3c f5e9 5c3d
00000300: f490 813c 9953 bbbc a151 e6ba db9a 473d
00000310: dab2 24bd b772 3a3c 61bb 5d3c 17db 51bd
00000320: cc96 573d cf4a a73c 08b3 2e3d 406e 6a3c
00000330: fd37 4b3d 6048 223d 5ad8 07bb da2e 9e3d
00000340: d7bd a83d 28c0 183d 560b d63c a856 5b3d
00000350: c85e 163c 105a 233d 5682 e6bc 2f8a 813d
00000360: f741 08bd 383c 463d 1b76 013d 459c 34bc
00000370: d66b 493d fb12 fd3c ec5e 50bd 147e 4fbd
00000380: c9e2 2d3d eca3 433c b2cf 133d 878e 67bd
00000390: 18df a53c ce3c 0d3b 1f8b 233d 8a5b 173c
000003a0: 8bcc 4d3a b1af 5a3d cc3c 753d 7aae b03d
000003b0: cedc 2abc 4dc0 803d 4a6e 123d 3e09 79ba
000003c0: 37fa e5bc bd56 4c3d d916 8f3d 8bea f6bc
000003d0: 7294 1bbd bad0 01bd 0279 35bd d6c5 7fbc
000003e0: 7aa2 073d e438 4cbd 0ebf 43bd d798 463d
000003f0: 70c6 e43c af91 02bd 593d 573d f912 3a3d

conv2.0.bias f4 [16]
-0.01122426 0.048812326 0.043747623 -0.021615352 0.02687137 0.06864052 0.03603112 0.0558473
-0.014858202 -0.0015315168 0.011546537 0.04429673 0.021748977 -0.033822734 0.023105318 -0.015524169
00000000: f5e5 37bc 6fef 473d b530 333d ae12 b1bc
00000010: 5921 dc3c 6793 8c3d 5e95 133d 23c0 643d
00000020: d16f 73bc 2dbd c8ba b02d 3d3c 7d70 353d
00000030: e92a b23c b589 0abd 5d47 bd3c 1659 7ebc

fc1.1.weight f4 [3, 560]
0.022586389 0.050956134 0.06743535 -0.018413357 0.03768814 -0.051292043 -0.009249367 0.009345137
-0.030070962 -0.04214413 -0.035303008 -0.0073158485 -0.04669267 -0.07175331 -0.007962112 -0.067250885
-0.090340205 -0.09565486 -0.034163013 -0.057283446 0.014660543 -0.022584634 -0.014265163 0.039025113
0.062961936 -0.0045829946 -0.013986396 0.032312963 0.04677259 -0.017013539 0.03261055 0.030111527
-0.006367594 0.006584827 0.008672532 0.015780037 -0.026271341 0.018348608 0.010085421 0.044786207
-0.022813985 0.011579012 -0.03352286 -0.030985221 0.008313212 0.020058624 0.03777247 0.037180692
-0.019898603 -0.02007773 -0.02360852 0.029401556 -0.025255764 -0.023252402 -0.0339062 -0.0015327509
-0.03495172 -0.0022116413 -0.028023884 0.019294333 0.044227205 -0.042550515 0.014030593 0.023172159
0.019211471 0.006640648 -0.020671574 -0.009440933 0.0048371106 -0.0013690921 -0.03414091 -0.044005148
0.0074128006 0.009883725 -0.0060717305 -0.058335688 -0.04082047 0.01882013 0.018378468 0.0042806244
-0.035561804 0.018764637 0.0125887655 -0.053258706 -0.0035883372 -0.043815937 -0.0179652 0.010554675
0.007089659 -0.026934477 0.002425201 0.031913035 -0.03839037 -0.013233739 -0.023070848 -0.031681772
0.017098553 -0.01869161 -0.028350942 -0.035001207 -0.004937027 0.0012684879 0.011480516 0.0222857
0.030953513 0.014528572 -0.006799852 0.059395242 -0.008992343 -0.03395431 -0.012081851 -0.027319169
0.015601433 0.025007542 0.0008197356 0.0046969973 0.012133057 0.0027710546 0.0037863955 -0.04421335
-0.015032511 -0.030197395 -0.003079359 -0.06794782 0.005844345 0.011807583 0.031813495 0.057753555
0.033664685 0.055725567 0.009438618 0.035090428 0.050345223 0.0026925541 0.034368828 0.04528816
0.007644879 0.009098134 0.0011174465 0.024334017 0.094784714 0.08544435 0.1010527 0.062960096
0.038983595 -0.008270259 0.009614772 -0.025559803 -0.020049274 -0.012844708 -0.038735993 -0.034703918
-0.082410105 -0.023228383 -0.002026162 -0.040259957 -0.0885857 -0.059034485 -0.091949224 -0.0123551395
0.030878628 0.041240074 0.0088332845 0.051176365 0.036513593 0.058713816 0.029370725 0.020696238
0.019391216 0.023294194 0.021494206 0.014390351 0.021084301 0.028663278 -0.011385765 0.04110767
0.039465006 -0.019015517 0.0048060003 0.017125167 0.039586417 -0.027210245 -0.027394922 -0.039879348
-0.033653874 0.010724303 -0.007246219 0.033899345 0.038001522 -0.0061852 0.0020944907 0.040146947
0.044315353 0.036453087 -0.024177112 -0.010750817 -0.016654879 -0.038010094 -0.04479717 0.022647832
0.03377499 0.031222748 -0.047285095 -0.041195817 0.02836764 0.02447194 0.010601499 -0.012824469
0.03529566 0.02252552 0.02513791 0.07015494 0.08120516 0.043449435 0.07962453 -0.010754847
-0.03449729 -0.011983306 0.04061394 -0.018083366 0.036591865 0.032177716 0.04392278 0.04361806
-0.017950347 0.050203245 -0.020177634 -0.01587306 0.016592098 0.020755097 0.012071421 0.02791309
0.0243054 -0.010812652 0.055107437 0.03505966 -0.009229687 -0.02139247 -0.00686838 -0.01880113
0.028601576 0.019353079 -0.033975 0.0075455215 -0.037202477 -0.024573093 0.03700501 -0.009655276
0.028754687 0.03463765 0.035247628 -0.00066089194 -0.04369425 0.025141114 0.015491667 0.016566638
00000000: 1707 b93c 61b7 503d 8b1b 8a3d 9cd7 96bc
00000010: e15e 1a3d 9b17 52bd a88a 17bc 581c 193c
00000020: 6157 f6bc 539f 2cbd e399 10bd c9b9 efbb
00000030: d040 3fbd 66f3 92bd 8573 02bc d5ba 89bd
00000040: 4904 b9bd b2e6 c3bd 84ee 0bbd 0ca2 6abd
00000050: c632 703c 6903 b9bc 6eb8 69bc ccd8 1f3d
00000060: 30f2 803d f22c 96bb 3227 65bc 995a 043d
00000070: 9e94 3f3d fa5f 8bbc a492 053d 73ac f63c
00000080: 40a7 d0bb 88c5 d73b 3c17 0e3c 2345 813c
00000090: ff36 d7bc d24f 963c 523d 253c be71 373d
000000a0: 65e4 babc e5b5 3d3c 444f 09bd b8d4 fdbc
000000b0: 2334 083c fc51 a43c 4eb7 1a3d c84a 183d
000000c0: 6502 a3bc 0d7a a4bc a866 c1bc 88db f03c
000000d0: 2de5 cebc d27b bebc 3ae1 0abd 96e6 c8ba
000000e0: 8929 0fbd 2ff1 10bb 5892 e5bc 260f 9e3c
000000f0: 9627 353d 7349 2ebd 93e0 653c 8ad3 bd3c
00000100: 6061 9d3c cb99 d93b 6f57 a9bc 25ae 1abc
00000110: a080 9e3b 1c73 b3ba 57d7 0bbd be3e 34bd
00000120: 14e7 f23b 59ef 213c 5ef5 c6bb 67f1 6ebd
00000130: 5d33 27bd ac2c 9a3c 718e 963c 7b44 8c3b
00000140: 41a9 11bd 4cb8 993c 1c41 4e3c cd25 5abd
00000150: 4f2a 6bbb 5778 33bd c12b 93bc 84ed 2c3c
00000160: 5f50 e83b b1a5 dcbc 1ff0 1e3b 3eb7 023d
00000170: 383f 1dbd 53d2 58bc 13ff bcbc bfc4 01bd
00000180: 4412 8c3c 261f 99bc 3c40 e8bc 6d5d 0fbd
00000190: c9c6 a1bb 6443 a63a c618 3c3c 8090 b63c
000001a0: 3992 fd3c 3f09 6e3c 4bd1 debb 6d48 733d
000001b0: 9f54 13bc ad13 0bbd f5f2 45bc 73cc dfbc
000001c0: 279d 7f3c 9edc cc3c 86e3 563a 45e9 993b
000001d0: bbc9 463c 959a 353b 2d25 783b 0f19 35bd
000001e0: ec4a 76bc 8760 f7bc 12cf 49bb 3a28 8bbd
000001f0: eb81 bf3b 9874 413c de4e 023d fe8e 6c3d
00000200: fbe3 093d 7e40 643d 6fa4 1a3c fbba 0f3d
00000210: cb36 4e3d 9075 303b 54c6 0c3d 1480 393d
00000220: e581 fa3b 5710 153c 4877 923a 2258 c73c
00000230: 7d1e c23d 73fd ae3d b8f4 ce3d 39f1 803d
00000240: 43ad 1f3d fb7f 07bc 4787 1d3c cb62 d1bc
00000250: 603e a4bc 9c72 52bc a2a9 1ebd b225 0ebd
00000260: a1c6 a8bd 7349 bebc 5cc9 04bb a0e7 24bd
00000270: 6b6c b5bd 25ce 71bd e04f bcbd 366d 4abc
00000280: 2df5 fc3c 5aeb 283d 7bb9 103c 4f9e 513d
00000290: 478f 153d e67d 703d e09a f03c 288b a93c
000002a0: 54da 9e3c 77d3 be3c 9e14 b03c 82c5 6b3c
000002b0: fcb8 ac3c 40cf ea3c 5c8b 3abc 8460 283d
000002c0: 0fa6 213d 6ec6 9bbc a77b 9d3b 144a 8c3c
000002d0: 5e25 223d 05e8 debc 516b e0bc 8758 23bd
000002e0: a5d8 09bd fdb4 2f3c b171 edbb 0ada 0a3d
000002f0: 7ca7 1b3d 38ad cabb b943 093b 2071 243d
00000300: 0484 353d d54f 153d 140f c6bc 3224 30bc
00000310: d06f 88bc 79b0 1bbd 3d7d 37bd f287 b93c
00000320: a557 0a3d d9c6 ff3c 04ae 41bd f2bc 28bd
00000330: 4163 e83c 6179 c83c e9b1 2d3c b91d 52bc
00000340: 2f92 103d 7087 b83c 05ee cd3c 65ad 8f3d
00000350: e44e a63d 09f8 313d 3012 a33d 1935 30bc
00000360: 084d 0dbd a155 44bc ce5a 263d 9123 94bc
00000370: 5ae1 153d c8cc 033d 5fe8 333d daa8 323d
00000380: 9b0c 93bc eba1 4d3d 914b a5bc 3808 82bc
00000390: 27ec 873c 9806 aa3c 36c7 453c fea9 e43c
000003a0: 1e1c c73c 8d27 31bc 56b8 613d b89a 0f3d
000003b0: 1d38 17bc 433f afbc 2610 e1bb d404 9abc
000003c0: da4d ea3c 598a 9e3c 5f29 0bbd 6c40 f73b
000003d0: a061 18bd 834d c9bc 9192 173d 2a31 1ebc
000003e0: f38e eb3c 35e0 0d3d d15f 103d b53f 2dba
000003f0: bef8 32bd bdf4 cd3c c3d0 7d3c c2b6 873c

fc1.1.bias f4 [3]
-0.009505883 0.0138796745 -0.025849873
00000000: 90be 1bbc 9367 633c 1dc3 d3bc
