datascience/cnn/model_0/model_v2.pt (torch, 31199 bytes, 6 tensors)

conv1.0.weight f4 [32, 3, 3, 3]
000000 b9 09 24 be 6e 66 12 be 1b 09 15 bc 6e dc d7 bd
       -0.16019334 -0.14296886 -0.009096409 -0.105400905
000010 e9 e8 44 bd 49 61 03 bb 5f 03 77 3d 54 a6 85 bd
       -0.048073683 -0.0020047 0.06030595 -0.06525865
000020 d9 94 46 bd 3e e3 88 bd 13 fc a5 bd 04 c2 06 3c
       -0.048481796 -0.06683968 -0.0810472 0.008224968
000030 f1 c3 1d be 3d 23 8f bd 61 af 08 be df 35 49 3e
       -0.15406777 -0.06989143 -0.13348152 0.19649456
000040 e7 7b f9 3b 33 9d 28 3e 92 64 1c be 69 fc ab 3d
       0.0076136473 0.16466217 -0.1527274 0.08397753
000050 d6 2c 04 3e b2 23 0f 3e 4f 55 07 be 77 27 c9 3c
       0.12907729 0.1397846 -0.13216136 0.024554951
000060 48 4f 64 3d e0 7d 7b bd 41 ef 06 3e 52 c4 1f 3d
       0.05573967 -0.06139934 0.13177206 0.039005585
000070 13 7f 48 bd 59 59 b6 3c 29 06 6b 3c e2 51 c3 3d
       -0.048949312 0.022259401 0.01434473 0.09537102
000080 6f 95 c9 bd dc 8d 21 3e 3b 60 1e 3e 2c 6e 09 3e
       -0.09842955 0.15776771 0.15466397 0.13420933
000090 ef 48 8c 3d ef 2f e0 bc e5 d7 29 be 6e 5a 0c be
       0.068498485 -0.027366607 -0.16586263 -0.13706371
0000a0 52 f0 47 3e 40 dd 82 3d e5 b2 b3 bd e3 94 a3 3c
       0.19525269 0.06389856 -0.08774356 0.019968456
0000b0 c9 d2 7a bd 35 74 ff bd 55 ff 5b 3e 01 dc c2 3d
       -0.061236177 -0.124733366 0.2148412 0.09514619
0000c0 fd 30 19 3e 6f 8d 6a 3d 1f 44 be bd 28 d6 4c 3e
       0.14960094 0.057263788 -0.09290337 0.20003569
0000d0 e6 25 75 bd 92 d3 39 be d2 2a e8 bd 83 da df 3d
       -0.059850596 -0.18147114 -0.11336292 0.1093035
0000e0 a1 c8 54 3e 6a 5e 1e 3d 27 cd 64 3d 2a 4a 17 3d
       0.20779659 0.03866426 0.05585971 0.036935963
0000f0 09 8d 36 3e a8 a6 fc 3d 9c 8b d6 3d c5 32 3e 3d
       0.17827238 0.12336475 0.10475847 0.046435136
000100 e6 8c 10 3d 46 19 0a bd b1 99 a8 3d 0b e9 16 3e
       0.03529062 -0.03371551 0.08232439 0.14737336
000110 09 01 42 3e 7e c8 41 3d 3d fd a4 bc de 66 13 3e
       0.18945707 0.047310345 -0.020140285 0.1439471
000120 0f 6d 70 bd 14 59 13 3e ea e0 3e 3e e2 f8 1e be
       -0.058697756 0.1438945 0.18640485 -0.15524629
000130 67 08 b8 bd 84 e3 21 be ce 8c b5 bd 76 02 1a 3e
       -0.089859776 -0.15809447 -0.08864747 0.15040001
000140 8c f3 1c be e7 47 07 be 4d e4 31 be 4f f7 0a 3e
       -0.15327281 -0.13211022 -0.17372246 0.13570903
000150 a5 df cf bd a5 22 c9 bd 9a 96 d5 bd 82 1d 1d bd
       -0.10150079 -0.09821061 -0.104291156 -0.03835822
000160 da d2 0f be 56 3d 22 3d c8 32 40 3d 4a 5b 06 3e
       -0.14045277 0.039609276 0.04692343 0.13120762
000170 f8 da a4 bc b1 6d 96 3d ad aa 36 bd 00 69 d8 bd
       -0.020123944 0.07345141 -0.044596363 -0.10566902
000180 a7 92 2e be 24 b8 42 be 65 2e 0d be 2d 6e 99 bc
       -0.17048131 -0.19015557 -0.1378723 -0.018729294
000190 09 9c 93 3d 8f b7 31 3d ed c2 aa 3d 6a 8e 2d be
       0.07207496 0.043387946 0.083379604 -0.16948858
0001a0 fd 5d f5 bd 5d d9 24 bd 7d 32 0d bd 35 88 bc bc
       -0.119808175 -0.040246356 -0.034471978 -0.023014167
0001b0 2d 5f 57 3e 1b e6 04 be ce e3 28 3d 72 9e 62 bc
       0.210324 -0.12978403 0.041232876 -0.013831722
0001c0 c9 1d 36 3e 20 4c 23 be b5 37 9d 3d 24 5a 92 bd
       0.177848 -0.15947008 0.07676641 -0.07146099
0001d0 7b de f3 3d 8d 68 83 3d da 04 42 3d a5 e6 06 3e
       0.11907669 0.06416426 0.047367908 0.13173921
0001e0 8a 9d 18 3c 2e 3b 26 3e 02 5e 6b 3d 98 4d 01 3e
       0.009314904 0.16233513 0.0574627 0.12627256
0001f0 42 85 21 3e e4 c5 f2 bd f2 15 de 3d b6 48 4c 3d
       0.1577349 -0.11854151 0.108440295 0.04987403
000200 59 8b ec 3c ec 36 e7 bd 00 f6 42 3e 9a ef e0 3c
       0.02887504 -0.112897724 0.19039154 0.027458
000210 00 ef 85 bd a6 29 53 bc b4 65 36 be e9 0b 8e bd
       -0.06539726 -0.012888348 -0.17812234 -0.069358654
000220 dd 1b 2a 3e 03 10 e9 3d f6 e7 af 3d ec e9 4a 3d
       0.16612191 0.11380007 0.08589165 0.04953949
000230 40 a7 a0 3d 0c 52 27 be 6d 79 f0 3c 6e bf d5 bd
       0.078444004 -0.16339892 0.029354775 -0.10436903
000240 9b cf 65 3e ea 8f ac 3d f6 67 03 3e f5 f2 dd bd
       0.22442476 0.08425887 0.12832627 -0.10837356
000250 8d a2 14 3e 47 d6 10 bd e0 7b 24 3e 1b 7b 30 3e
       0.14515133 -0.0353606 0.1606288 0.17234461
000260 0d e2 a4 bd 49 8c 27 3e 96 7c 56 3e 1a 0b 03 be
       -0.08050928 0.16362108 0.20945963 -0.12797204
000270 d2 f4 2d 3e 6b 7d 44 3e 9c 01 41 3e 5e 48 34 3d
       0.16987923 0.19188468 0.1884827 0.044014327
000280 93 67 5f 3e d3 00 29 3d 76 94 e2 bc 83 41 c5 3b
       0.21816854 0.04126055 -0.027658682 0.0060197725
000290 50 a8 3e be bf 80 54 3d c1 8d 5c 3d 4e c2 c3 3d
       -0.18618894 0.051880594 0.053846125 0.09558545
0002a0 09 ef 3b 3e 23 37 96 3d 65 3a d5 bd 4e 7c 7a 3d
       0.18352903 0.07334735 -0.104115285 0.061153702
0002b0 c4 19 2b 3e 6b c5 1e be 88 dc 7f bd 2b 5a bc bd
       0.16709048 -0.15504996 -0.062466174 -0.09196886
0002c0 fb d9 41 be e7 bf cd 3d 61 21 1e 3e 2c c8 be bd
       -0.18930809 0.10046368 0.1544242 -0.093155235
0002d0 a9 46 d6 3a 42 b9 94 bd 45 a5 58 3a 19 35 2a 3e
       0.0016347963 -0.072618976 0.0008264373 0.16621818
0002e0 84 d8 28 be 19 c1 20 be 04 91 2e be 6d 0a fd bd
       -0.16488844 -0.15698661 -0.17047507 -0.12355504
0002f0 c2 bc ff 3d 74 83 a8 3d 8c 7d e8 bb 97 3b bb 3c
       0.124871746 0.08228198 -0.0070950445 0.022855563
000300 92 1c 75 3c b2 eb 65 3e b9 d1 03 3c 85 0b b9 3d
       0.014960425 0.22453192 0.008045607 0.090354
000310 38 dc a8 bc b2 07 26 3e fb 4c 22 3e f3 83 86 bd
       -0.020612821 0.16213873 0.15849678 -0.06568136
000320 e0 09 50 3d 78 05 c8 3d 6d 10 a6 3d 69 c2 fc bb
       0.050790668 0.09766668 0.08108602 -0.007713605
000330 f4 ae 22 3e e8 df 85 bd 48 11 a9 bd 53 72 4a bd
       0.15887052 -0.06536847 -0.08255249 -0.049425434
000340 56 ca 91 3c 3d 03 41 3e f4 40 2f 3e 3c aa 95 3d
       0.017796677 0.18848892 0.17114621 0.0730786
000350 d2 a6 d5 bd 95 aa 5c 3d b2 08 26 3d a9 fa 4d 3e
       -0.10432209 0.053873617 0.040535636 0.2011515
000360 92 29 da 3c c5 8a 97 3d b5 fe ea bc cf d9 09 3d
       0.02663115 0.07399515 -0.028685907 0.033654984
000370 f9 29 8e bd e6 a1 bc 3d d2 d6 15 3c 7b 23 46 bd
       -0.069415994 0.09210567 0.009145455 -0.04837368
000380 f4 51 ff bd 88 98 20 3e b4 de 23 3e 92 7b 6d 3c
       -0.12466803 0.15683186 0.16002923 0.0144947935
000390 26 05 23 be 04 44 80 bd 97 91 1a be 7b 33 fd 3d
       -0.15919933 -0.06262973 -0.150946 0.12363335
0003a0 e6 26 4b ba 86 aa 10 3e 0c 2d 12 be ab d9 c0 bd
       -0.0007749632 0.1412755 -0.14274997 -0.09416517
0003b0 59 70 7d 3d 1a 7d 23 3c b2 35 65 bd d1 75 b5 bd
       0.06187472 0.009978557 -0.05595941 -0.08860362
0003c0 9f 90 1f be d8 19 2f bd e0 62 9f 3c 38 29 2a be
       -0.15582512 -0.042749256 0.019456327 -0.16617286
0003d0 ee ad a0 bd b7 29 b0 bc 59 e0 26 3e 3c b4 ca bd
       -0.078456745 -0.021504266 0.1629652 -0.09897658
0003e0 68 ba 8e 3d ec d8 31 3d e0 c2 1c be 06 31 37 3e
       0.06969148 0.043419763 -0.15308714 0.17889795
0003f0 bf 28 17 3e 42 9d 9b 3d fb a1 21 3e 75 66 31 be
       0.14761637 0.07598354 0.15784447 -0.1732424

conv1.0.bias f4 [32]
000000 bf f2 0d 3d c3 16 e1 3d 8d 6f 99 3d f2 ed e7 bc
       0.03465533 0.109906696 0.0749198 -0.028311703
000010 db 89 9a bd 48 c8 35 3c 82 d4 e9 bd a9 d2 8d bb
       -0.07545825 0.011095114 -0.11417486 -0.004328091
000020 d6 97 3d 3e 9e 73 a4 3d 0e fc b8 3c 18 d8 2a bd
       0.18514952 0.08029865 0.022581127 -0.04170999
000030 67 9b df bc 2c 94 3f be 32 c5 34 be bb b6 d9 3b
       -0.027295781 -0.18708867 -0.17653349 0.0066440976
000040 6f 3d 3f 3e 9d d5 32 bd 99 72 10 3c ac ac 09 be
       0.18675779 -0.04366075 0.008816385 -0.13444775
000050 65 7e 25 be 75 f5 b0 3b ef 37 54 3d e3 b3 2c be
       -0.16161497 0.0054003545 0.051811155 -0.16865496
000060 fe cf d8 3d ff 54 c9 3d 4a 41 04 be 72 53 2b be
       0.10586546 0.09830665 -0.12915531 -0.1673105
000070 98 6a 28 3c 85 e8 d7 bc 4a 6e 06 3e b1 3e 44 bd
       0.01027932 -0.026355991 0.1312801 -0.04791135

conv2.0.weight f4 [16, 32, 3, 3]
000000 42 74 d9 3c 22 9f 19 bd d3 ce 55 bc 6f 65 9f bb
       0.026544694 -0.037505277 -0.013049799 -0.0048643867
000010 bd 88 39 3d 8a e7 d2 bb 7a a2 4d bd de d4 2b bd
       0.04529642 -0.006436293 -0.050203778 -0.041951053
000020 8a c9 75 3d 70 0a 97 3c 98 92 eb 3b a5 2d d4 bc
       0.060006656 0.018437594 0.007189106 -0.025900671
000030 01 06 2f bc 38 22 1d 3d 90 72 9f 3d 3a 40 39 bd
       -0.010682584 0.03836271 0.07785523 -0.045227267
000040 81 d3 7e 3d a9 63 af 3d 58 76 55 bd 17 c7 46 bd
       0.062213425 0.085639305 -0.052114815 -0.04852971
000050 9a 9a 21 3d e5 9a 4f bd 94 37 aa 3c be 7a 95 bc
       0.03945408 -0.05068483 0.020778455 -0.018247005
000060 28 4d 77 bd d5 f3 10 3d 36 1c 25 3d bd b8 f5 bc
       -0.060376316 0.035388786 0.040310107 -0.029995317
000070 3b b1 04 bd cc ad 27 bd b1 07 5f bd e3 79 17 bb
       -0.032395583 -0.04093723 -0.054450694 -0.0023113422
000080 1e e3 e8 3c ca 34 96 3c 1c 24 a2 bb ea dd 45 bd
       0.02842861 0.018335719 -0.004948152 -0.048307337
000090 55 44 f2 b9 14 4a 5d 3b bf 67 1d bc ef 20 91 bd
       -0.00046208748 0.0033766078 -0.0096072545 -0.0708636
0000a0 76 eb 33 bd ad 68 61 bc f8 11 73 bd 8d 4f 1b bd
       -0.043925725 -0.013757867 -0.05934331 -0.037917662
0000b0 77 f1 f9 bc 66 dc 01 3c 54 2e 68 bd d2 bd 22 3d
       -0.030510647 0.007926082 -0.056684807 0.039731808
0000c0 2d 2c b8 bd 0b b8 0a bd 8a 43 32 3d f7 5c c1 bc
       -0.08992801 -0.033866923 0.04352144 -0.0236039
0000d0 a3 cb d7 bc 7f e8 34 3d 5f fc 84 bc 56 1b 97 bb
       -0.026342219 0.044167038 -0.016233621 -0.004611413
0000e0 fb a0 52 bd 01 56 50 3c 85 cc f5 bc f9 9d 66 3a
       -0.051423054 0.012715817 -0.03000475 0.00087973435
0000f0 f6 aa 1c 3d f1 b1 48 3d bb 22 32 3b 18 d7 a4 3c
       0.03824898 0.048997823 0.0027181346 0.020122096
000100 4d 6f 4e bd 94 da 4e 3d e2 ce dc bc d7 68 91 bd
       -0.050399113 0.05050142 -0.026954118 -0.07100075
000110 88 e2 5c bb be 8c 8f bd 3b 3d ea 3c 0b 03 ce 3c
       -0.003370436 -0.07009266 0.02859365 0.025147935
000120 7a 40 82 3d 6e 95 41 3c dc bf 90 3d 5c 18 68 3d
       0.06359954 0.011815412 0.07067844 0.056663856
000130 39 6a 88 3b f5 fb 0d 3d 71 02 93 bc aa 3b 2f 3d
       0.0041630534 0.034664113 -0.0179455 0.04278151
000140 0d b6 78 bc 8d c4 80 3d d6 8d 15 3d 4d 53 41 3d
       -0.015180123 0.06287489 0.03651222 0.047198582
000150 1c ef 02 bd ef 28 11 bc d1 b0 ad bc fc be a4 bb
       -0.031966314 -0.008859857 -0.021202477 -0.00502765
000160 f0 c1 28 bc ba c5 75 3d 06 0a 85 bd 06 b5 07 bd
       -0.010300145 0.06000302 -0.064960524 -0.03313162
000170 84 c3 3e 3d 46 58 63 3c 8a 8f d7 bc 7d 9e 6a 3c
       0.046573177 0.0138760265 -0.026313562 0.014320013
000180 ba 07 bb bc 82 3a bd b9 41 53 6c 3c 1d 7b 7d bc
       -0.022830833 -0.0003609248 0.014424146 -0.015471247
000190 7a cf 1a 3d 0d f8 53 3c 52 1b 8f 3c f8 ab 32 3c
       0.03779552 0.012937558 0.017469082 0.010905258
0001a0 e7 25 0d bd 81 7a b9 bb 9a e6 a6 bb 1a cb 43 bd
       -0.034459975 -0.0056603556 -0.005093408 -0.047801115
0001b0 15 68 1d 3d 6b 7f 6a bd 0c 4b c5 3b 1a 95 10 3d
       0.03842934 -0.05725042 0.006020909 0.035298444
0001c0 53 bf 26 bb 58 63 7d bc f8 45 7e 3c 99 1c 97 3b
       -0.0025443628 -0.01546558 0.015519612 0.0046115634
0001d0 2a 9c f1 3c aa 4c 87 3b 35 a6 50 bd 29 56 28 3d
       0.02949341 0.004129012 -0.050939757 0.041097794
0001e0 5a ad 8f bd ba 51 38 3c 48 f3 fb bc 82 31 bc 3b
       -0.07015486 0.011249954 -0.030755654 0.0057432065
0001f0 0c 2d 06 3d d7 14 3b 3d 7c b3 6b 3d cf b9 dd bc
       0.032757804 0.04567417 0.057544217 -0.02706614
000200 7e 9a 6f 3d 81 a1 07 bd ab 49 b7 3c 35 87 0f bd
       0.058496945 -0.033113007 0.022373995 -0.035041053
000210 93 09 b9 3c ed 67 a0 3c 03 c4 ce 3b 47 ca 14 bd
       0.022587573 0.019580806 0.0063099875 -0.03632572
000220 22 21 52 bd bc 38 1d bd e3 3f a1 3c 26 10 83 bc
       -0.05130113 -0.038384184 0.019683784 -0.015998911
000230 1b 44 97 3c c2 24 92 bc 3d 68 48 3c d4 6f a6 bc
       0.018465092 -0.017839793 0.012231884 -0.020316996
000240 4e d4 4a bb c7 7d 1f 3d 75 4b a2 3d f9 95 fe bc
       -0.0030949297 0.03893831 0.079245485 -0.031077372
000250 e8 bc fe 3b 1f 26 99 3d 81 c6 b5 39 1f 4c df 3b
       0.007773984 0.07477974 0.00034670907 0.0068144943
000260 a8 3c 6a 3d 61 40 36 3d 69 ba 97 bc 75 1f 74 3d
       0.057186753 0.04449499 -0.018521504 0.059600312
000270 de 70 b0 3b 15 39 0a bd 67 3f 28 bd 60 b9 6e bd
       0.0053845486 -0.033745844 -0.04107609 -0.058282256
000280 63 83 43 bd 62 ff 6a 3c f2 d6 1e bd 31 31 69 ba
       -0.047732722 0.014343115 -0.038779207 -0.0008895575
000290 c7 f0 13 bd ef 6c 2e 3d cc 13 2a 3d 3c b3 87 bc
       -0.036118295 0.042584356 0.041522786 -0.016564958
0002a0 bf 25 7c bc ff e6 83 bb 6c 47 58 bd d0 55 05 bd
       -0.015389859 -0.0040253396 -0.05280249 -0.03255254
0002b0 95 66 4a bd bc 6f 6d 3d 28 28 56 3b 03 22 6d bc
       -0.049414236 0.057967886 0.0032677744 -0.014473441
0002c0 71 82 07 bc b1 33 e6 3c 94 b7 d0 bc 3c 52 22 bd
       -0.008270846 0.02810082 -0.025478162 -0.039629206
0002d0 cd 8d 78 bd 6a a7 c2 3c 02 62 03 bd 1b a4 04 bd
       -0.060682107 0.02376147 -0.03207589 -0.032383066
0002e0 de e9 eb 3c 1c 88 ff bb be 74 0d bd 37 13 8a bd
       0.02879804 -0.007798208 -0.034535162 -0.06741946
0002f0 34 ec 6e 3d f3 97 49 bd af 32 0f 3d 66 05 59 3d
       0.05833073 -0.049217176 0.034960445 0.052983664
000300 1c 7d 0a bd 67 be 42 3d 42 8d ad 3c 21 c5 5c bd
       -0.03381072 0.047544863 0.021185521 -0.053898934
000310 16 fc f4 bc 0d 09 ba 3c f6 b1 cf bb 7c 3b 73 bc
       -0.02990536 0.022709394 -0.0063383533 -0.014845725
000320 48 b3 3c bd 2f 9a de bc db 71 11 bd 3b 7b 6d 3c
       -0.046069413 -0.02717313 -0.03550897 0.014494712
000330 fd 29 3f bd f2 d8 a4 bc 99 6d 62 bd bf 0b de 3c
       -0.046670903 -0.020122979 -0.0552803 0.02710521
000340 fa e0 3f 3d cb f5 99 bc c1 c3 1b bd 3d af 38 3d
       0.046845414 -0.018793961 -0.038028482 0.045088995
000350 40 3a fa bc 2a e3 5d bd af 81 01 bd 1b b0 4a bd
       -0.030545354 -0.05417172 -0.031617817 -0.049484354
000360 bd 6f 8b 3d 50 20 86 3d 26 9b 9c bc f3 bd 26 3d
       0.06808422 0.06549132 -0.01911695 0.040708493
000370 71 17 2e bd 10 02 17 3d 21 25 09 bd ec 34 bd bc
       -0.042502824 0.0368672 -0.033482675 -0.023096524
000380 94 f9 43 3b 2d 84 f5 bc 1f 23 c3 bc 57 41 03 3d
       0.0029903399 -0.029970253 -0.023820458 0.032044735
000390 3c b8 12 3d 59 a3 8e bc f2 45 de 3c fb be ce 39
       0.03582023 -0.017411875 0.027132962 0.00039433673
0003a0 96 bb d5 3c ed 9e e7 3c 22 4c b9 3c 54 95 c1 bc
       0.026090425 0.028274024 0.02261931 -0.023630776
0003b0 0b 40 01 3d 5b a2 5a 3d 2b d6 48 bd ee 9b cd 3c
       0.031555217 0.05337749 -0.04903237 0.025098767
0003c0 f8 7c 48 bd 48 e7 7b bc 86 de 48 bd 1d f8 6c bd
       -0.048947304 -0.015374966 -0.04904034 -0.057853807
0003d0 fe 16 e5 bb 63 3e 48 3d c5 f9 ba bb 29 95 85 bd
       -0.0069912663 0.04888762 -0.0057060444 -0.06522591
0003e0 fd df a3 bc ea 8d 60 bd 2c c4 06 bc c2 4a 52 bd
       -0.020004267 -0.05482284 -0.008225482 -0.051340826
0003f0 38 3e 9a bd 3c 41 36 bd 62 6e 61 3d 1d 19 43 bd
       -0.075313985 -0.044495806 0.05503691 -0.04763137

conv2.0.bias f4 [16]
000000 44 e6 d3 3d 19 fd a8 3d 92 7c 11 bb 71 ce ca 3c
       0.10346654 0.082513995 -0.0022199494 0.024756642
000010 f5 25 21 bc 2f de c1 3a 9d 8f 92 3c b9 b3 33 3d
       -0.00983571 0.0014790947 0.017890746 0.04387257
000020 93 4e 59 bd 0b 13 18 3d 88 9b de 3c d2 21 5c bd
       -0.05305345 0.037127536 0.027173772 -0.05374319
000030 6b e2 6d 3d 6b cf 81 bc 3e 44 2a bd d6 2d c4 3d
       0.058077257 -0.015845975 -0.041568987 0.09579055

fc1.1.weight f4 [3, 560]
000000 dc 89 7e 3d 21 dc 54 3d 54 1f 6b 3d b1 6f 97 3c
       0.06214319 0.051967744 0.057402924 0.018485876
000010 d6 04 b4 3c 00 d8 3c 3d 76 6a 85 3c d8 51 26 3b
       0.021974962 0.04610443 0.016286116 0.0025378373
000020 f1 75 28 3d 5c f4 9e ba d3 c7 e9 3d 27 dd 9a bc
       0.041128103 -0.0012127268 0.114150666 -0.018904282
000030 4a 9b 08 3d b0 fe 42 3d f6 8c ac 3c 25 f6 c3 3d
       0.03335122 0.04760617 0.02106331 0.09568433
000040 54 92 8d bc 0c 46 1f bc e5 19 c2 bc 5e 3e d3 bb
       -0.017281689 -0.00972129 -0.023693988 -0.0064466437
000050 36 af 74 3d 05 1a 0f 3c 2e a6 db bc c9 64 97 bc
       0.059737407 0.008734231 -0.02681264 -0.018480675
000060 1f 9e f9 3b 56 fb 94 3d ed 1e 39 bd 9e c4 1c bc
       0.0076177265 0.07274501 -0.04519551 -0.009568362
000070 d1 c6 19 3c 2c 87 ae 3c a2 47 09 3e 41 1f 28 3c
       0.00938578 0.02130469 0.13406232 0.010261358
000080 99 8f b8 3c 6d dd 47 3d bd 36 49 3d c1 38 b6 bc
       0.02252941 0.048795152 0.049124468 -0.02224386
000090 2c 5a 76 3c 47 fc 73 3c 70 40 d6 bc 43 bd 73 3b
       0.015036147 0.014891691 -0.026153773 0.0037191666
0000a0 0d 50 0a 3d 2a 2b 1c 3d 3e 08 9d bc 84 5c 0b 3d
       0.03376775 0.038127102 -0.01916897 0.034023777
0000b0 35 79 dc bb f2 c3 22 3d 36 60 8d 3c 71 68 19 bd
       -0.006728316 0.03973765 0.017257791 -0.03745312
0000c0 02 49 00 3d f4 0d 82 bc 51 38 02 bd 04 0f 3c 3c
       0.031319626 -0.015875794 -0.03179199 0.011478189
0000d0 3b a2 ba bc ce 98 1d bc c8 cc b2 bc 1f d4 73 3c
       -0.022782436 -0.009618951 -0.021826163 0.014882117
0000e0 c4 3d 83 bc 6b 1a f5 3c 87 94 ed bc 34 3b d8 3c
       -0.016020663 0.029919824 -0.029001487 0.026395418
0000f0 fc ac 3a 3c 0a 93 25 3d f5 58 28 3d 0d 58 d2 bb
       0.011393782 0.04042343 0.04110046 -0.006419188
000100 bc 1b 9d bc 6f e4 1c 3d 79 a2 1c 3b 9f 66 f5 3c
       -0.019178264 0.03830379 0.0023900552 0.02995616
000110 0f 40 8e bc d1 7b 08 3d 05 25 e6 3c eb 02 3a 3d
       -0.01736453 0.033321206 0.028093824 0.04541294
000120 2a dc 16 3c 90 75 fe 3b e5 de 3f bc 23 eb d1 bc
       0.009207765 0.0077654794 -0.011710857 -0.025624817
000130 ad 88 24 3c 76 fb 8b bc f7 21 ed bc 80 69 bf 3c
       0.010042352 -0.01708768 -0.02894686 0.023365736
000140 fc 58 01 3d f3 af ee 3b 27 1e 45 3a 0e d1 a0 bc
       0.031579003 0.0072841584 0.00075194467 -0.019630935
000150 9e 6c ba ba 1f 1d a5 3c fc 21 16 bd 77 1a 15 3d
       -0.0014223044 0.020155488 -0.036653504 0.036402192
000160 e9 57 52 bc c9 4d 0f 3c e8 b8 19 3d 01 88 dc 3b
       -0.012838342 0.008746573 0.037529856 0.00673008
000170 66 53 4a bd 77 60 3f bb 75 fb e6 3c 68 5c d2 3c
       -0.04939594 -0.0029201785 0.028196076 0.025678828
000180 92 ec c0 3c 50 af c3 bc 6b ee 61 bc 31 9d 21 bc
       0.023550306 -0.023887306 -0.013789753 -0.0098641375
000190 66 f5 4e 3c 5d 3c 2d bb 36 72 4b 3d 93 cf 48 3d
       0.01263175 -0.0026433684 0.049669467 0.049026083
0001a0 48 f2 dd bb d9 16 e6 3d 6e 95 cc 3d 55 85 da 3d
       -0.006773267 0.112348266 0.09989439 0.10669962
0001b0 4b d1 c6 3d bd d5 50 3d 98 fc c1 bc a8 4a 7b 3a
       0.09707888 0.050985087 -0.023680016 0.0009586015
0001c0 d9 f7 6c bb f1 bd dc 3c 40 a7 d6 3c 60 a0 dc bb
       -0.003615847 0.02694604 0.026202798 -0.0067329854
0001d0 6f 93 54 bc 67 ca 9a bc 2e 06 20 bd c8 47 ac 3c
       -0.012974604 -0.018895341 -0.039068393 0.021030322
0001e0 59 72 d0 bc a2 12 36 bd fb 7d 75 bd c3 8c cd 3a
       -0.02544515 -0.044451363 -0.059934597 0.0015682209
0001f0 c2 5e 04 bd f1 d7 ab 3d c8 1e 65 3d fc 7c 08 3d
       -0.03231693 0.08390797 0.05593756 0.03332232
000200 02 56 4b 3d ff 1b 6c 3d 44 cf a5 bc fa e8 00 bd
       0.04964257 0.057643887 -0.020240434 -0.031472184
000210 1f 04 ff 3c 8a 0f 22 bd c7 0c e9 bc f6 5a 28 3d
       0.031129895 -0.0395656 -0.028448476 0.041102372
000220 19 ef ac bb 5e ad 19 3d c5 b2 09 bd c6 7a 37 3d
       -0.005277526 0.03751885 -0.033617754 0.04479482
000230 09 ca 4e 3d 3e 05 91 bb 91 63 a7 3d 23 d7 2f 3d
       0.050485644 -0.0044256737 0.08173288 0.04292978
000240 65 69 dc 3c 87 b6 26 bc 56 bb dc bb 6b 72 84 3c
       0.026905725 -0.010175354 -0.0067361994 0.01616784
000250 44 54 e3 3c 7f 68 b6 3c 32 5b 45 bd 97 c2 93 3b
       0.027750142 0.022266624 -0.048182674 0.004509281
000260 96 35 3c bb 54 1d b2 bc df 1e 1a 3c 12 d2 83 bd
       -0.0028718463 -0.0217425 0.009406774 -0.06436552
000270 05 07 4e bc 6e 23 8b bd 3f 49 85 bd 87 aa 97 bd
       -0.012574916 -0.06793867 -0.06508111 -0.074055724
000280 b9 65 b6 3c cf 8c 48 3c f1 49 ce bc 4f 83 4d 3c
       0.022265302 0.012240603 -0.025181742 0.012543513
000290 8b 36 43 3d 9c 28 48 3d 19 95 12 3d 64 8b 71 3c
       0.047659438 0.048866853 0.03578672 0.014742706
0002a0 08 5c 1a 3d 29 b2 47 3d ce 29 6c 3d 8c 45 74 3c
       0.037685424 0.04875389 0.057657056 0.014909159
0002b0 19 8b ab 3c a8 0a de bb 38 c2 14 3d 54 e3 b7 3c
       0.02094035 -0.0067761727 0.036318034 0.022447266
0002c0 2e d9 16 bc d1 cb 0b bd f2 b3 e4 bc 99 77 3f 3b
       -0.009207053 -0.03412992 -0.027917836 0.0029215573
0002d0 a7 ef 9a bd 3b 09 42 bd 11 66 92 3c a6 5c 69 bc
       -0.07565241 -0.047372084 0.017870935 -0.0142432805
0002e0 58 78 d9 3b 99 18 62 bd 7f dc 22 bd 69 47 96 bb
       0.0066366605 -0.05519924 -0.039761063 -0.0045861495
0002f0 a3 d7 1c bd ae e9 71 bc c7 30 a4 bc 6f 24 6e bd
       -0.038291585 -0.014765186 -0.02004279 -0.058140215
000300 04 0e 63 3c ed 02 a8 bc 50 c9 66 bd 48 e8 f5 bb
       0.013858322 -0.020509208 -0.05634433 -0.0075044967
000310 b5 ea 01 3d 1f cf a4 bc 34 4d 9c 3b 89 f9 c6 3c
       0.031717975 -0.020118294 0.0047699455 0.02428891
000320 57 dd 34 bd 96 dd 51 3c 00 9f 15 3d ac f4 de 3c
       -0.0441564 0.012809178 0.036528587 0.027216278
000330 0e 74 1a 3c da 2b 18 bd 44 6e ab 3c 58 08 e1 bc
       0.009427084 -0.037151195 0.020926602 -0.027469799
000340 5e 2c 6b bc 85 a1 e9 bc e7 14 82 bc 40 b9 11 bd
       -0.01435384 -0.028519401 -0.015879108 -0.03557706
000350 1d 5a 52 bc ed 3a 67 3a 2c 23 0e 3d 92 64 c7 bc
       -0.0128388675 0.00088207313 0.03470151 -0.024339948
000360 c8 6d 12 bd cf 0a f1 bb bd 57 8d 3c 08 1a c6 3c
       -0.035749227 -0.007356025 0.017253751 0.024182335
000370 ab 39 25 3d 5f e8 19 bc 39 0d 36 3c 7a 11 b2 39
       0.0403382 -0.0093937805 0.011111551 0.00033963827
000380 aa cb 3a 3c 32 70 83 bc 82 62 0e bc 2c d3 c5 3a
       0.011401096 -0.01604471 -0.008690478 0.0015092841
000390 9f 52 a9 bc 20 79 74 3a 34 67 22 bd 5f 80 83 bc
       -0.02066928 0.00093259104 -0.039649203 -0.016052423
0003a0 82 61 f6 bc 41 9f e6 3c 51 12 c9 bb 0e 89 26 bd
       -0.030075792 0.02815211 -0.0061362167 -0.04065805
0003b0 83 16 6c 3c 82 21 a9 bb f2 ed af bb 1d 02 93 bc
       0.014409664 -0.005161465 -0.0053689415 -0.017945344
0003c0 66 d1 df 3c cf b9 26 bd e5 46 d9 bb b1 1b 00 bd
       0.027321529 -0.040704545 -0.0066307657 -0.03127641
0003d0 ba 91 cd bb 89 a5 f8 3c 6c dd 11 3c dc 21 13 bc
       -0.0062734755 0.03035237 0.008902889 -0.008980241
0003e0 70 ba 89 3c 9e ca 68 3b 52 85 12 bc 50 6b d5 bc
       0.016812533 0.003552116 -0.008942919 -0.026052147
0003f0 7c 84 19 bc 96 cb d2 3c e7 e2 27 bd 1a 50 c7 bc
       -0.009369966 0.025731843 -0.040987875 -0.024330188

fc1.1.bias f4 [3]
000000 3e d3 5e 3c 1e e8 a8 bc f2 ee 31 bd
       0.013600169 -0.020618495 -0.043440767
