datascience/cnn/model_0/model_v3.pt (torch, 31199 bytes, 6 tensors)

conv1.0.weight f4 [32, 3, 3, 3]
0	0x3e08002d	0.13281317
1	0xbd72b054	-0.05925019
2	0xbd3b8839	-0.04578421
3	0xbd6dfe0e	-0.058103614
4	0xbe0fa82d	-0.14028998
5	0x3e3d049a	0.18458787
6	0x3d1088b9	0.03528664
7	0xbdab8a0c	-0.0837594
8	0x3d7d5a18	0.0618535
9	0x3de493fd	0.11161039
10	0x3cd7f4f2	0.026361916
11	0x3e20bdc5	0.15697391
12	0x3decc681	0.11561299
13	0x3c5dddc3	0.013541642
14	0x3c720e51	0.014773921
15	0x3e10f8a9	0.14157356
16	0xbbde5136	-0.0067845834
17	0xbdab3ac1	-0.08360816
18	0xbdc664e6	-0.096872136
19	0xbe4323d2	-0.19056633
20	0xbdef81e4	-0.116946965
21	0xbd33bcd1	-0.04388124
22	0xbdc8e8aa	-0.09810002
23	0xbb3adc2b	-0.0028512578
24	0x3e3a9a6e	0.18222973
25	0xbe26884b	-0.16262929
26	0xbdd76a87	-0.10518365
27	0x3d0af788	0.03392747
28	0x3d0c5943	0.034264814
29	0x3e050a1c	0.12992138
30	0xbc856944	-0.016285546
31	0xbd59b5c2	-0.053151853
32	0x3e1c81e3	0.15283923
33	0xbd38e30e	-0.04513841
34	0xbc8f53b1	-0.017495962
35	0xbd845f32	-0.064634696
36	0xbcf5fd94	-0.030028142
37	0x3e48134a	0.19538608
38	0x3e075ddf	0.13219403
39	0xbd490fe1	-0.04908741
40	0x3e0ad4d3	0.13557748
41	0x3e094560	0.1340537
42	0xbde6f980	-0.11278057
43	0x3e228745	0.15871914
44	0xbd14b4f9	-0.0363054
45	0x3db7aff7	0.089691095
46	0xbe18b424	-0.14912468
47	0xbda5a31c	-0.08087751
48	0xbe2cc8fd	-0.16873546
49	0xbd2b762a	-0.041860737
50	0xbe1579e4	-0.14597279
51	0x3d09b277	0.033617463
52	0x3dc4564b	0.095867716
53	0xbe158e35	-0.14605029
54	0x3d15dc09	0.036586795
55	0xbd1c066a	-0.038092054
56	0x3e0eb5eb	0.13936584
57	0xbdc88278	-0.0979051
58	0x3e120b2e	0.14262077
59	0x3d075d87	0.03304818
60	0xbd4001f5	-0.046876866
61	0x3e175d09	0.14781584
62	0xbdfa1975	-0.12211887
63	0xbddcd219	-0.107822604
64	0xbe041519	-0.12898673
65	0xbd2dd984	-0.042443767
66	0xbd15c36c	-0.036563322
67	0x3e26afa4	0.16277939
68	0x3e26d633	0.16292648
69	0x3dd4cc3c	0.10390517
70	0x3d698ca1	0.05701888
71	0x3dbc50e0	0.09195113
72	0x3d713013	0.058883738
73	0x3dc92e37	0.09823268
74	0x3d0af6dc	0.03392683
75	0x3e43cdca	0.19121471
76	0xbc400402	-0.011719706
77	0x3cd0014d	0.025391245
78	0x3e24ebc4	0.16105562
79	0x3d84335c	0.064551085
80	0x3d974e0c	0.07387933
81	0xbe34db86	-0.17661867
82	0xbd1c3950	-0.038140595
83	0xbe09bcb9	-0.13450898
84	0x3e28a2f3	0.1646841
85	0x3e29fc01	0.16600038
86	0xbe0730ed	-0.13202257
87	0xbe31681f	-0.17324875
88	0xbe34a544	-0.17641169
89	0xbdad0650	-0.0844847
90	0xbdbe87e3	-0.09303262
91	0x3cf671a0	0.030083477
92	0x3e32b17b	0.17450516
93	0xbe377ac2	-0.17917922
94	0xbe3b369b	-0.18282549
95	0xbe362280	-0.17786598
96	0xbcfc0698	-0.030764863
97	0xbdc3fe84	-0.095700294
98	0xbd807fc8	-0.06274372
99	0xbdf69d91	-0.12041772
100	0xbd9829a8	-0.0742982
101	0xbe10c5d1	-0.14137961
102	0xbe2e4311	-0.17017771
103	0x3d75d5c4	0.060018316
104	0x3be1cd80	0.0068909526
105	0xbd983c56	-0.07433383
106	0x3dddecc2	0.108361736
107	0x3d86e29a	0.065861896
108	0xbe1ef553	-0.15523271
109	0x3bed65a2	0.0072447816
110	0x3cb19e59	0.021681951
111	0xbd7ebb6b	-0.062190454
112	0x3e182245	0.14856823
113	0xbd94d1b2	-0.07266559
114	0xbdd8651d	-0.10566161
115	0x3d0721bc	0.032991156
116	0xbe1ac805	-0.15115364
117	0x3e051d2d	0.12999411
118	0x3d4cd87c	0.050011143
119	0xbe33cf8f	-0.17559646
120	0x3de43d7a	0.11144538
121	0xbd588695	-0.052862722
122	0xbd14eb4c	-0.03635721
123	0x3dee2035	0.11627237
124	0x3d7e9ab1	0.062159244
125	0xbd96f8f6	-0.07371704
126	0xbd365357	-0.044513073
127	0xbb24bfce	-0.0025138739
128	0x3bcdfd21	0.006286279
129	0xbd80e325	-0.062933244
130	0x3e1aefd0	0.15130544
131	0x3d765f16	0.060149275
132	0xbe3fa93b	-0.187169
133	0xbd8acafc	-0.067769974
134	0x3cc5ca36	0.024144273
135	0xbdc2ec5d	-0.09517739
136	0x3db545b1	0.08851183
137	0x3df7a112	0.120912686
138	0xbe11e533	-0.14247589
139	0xbdaea2d3	-0.0852715
140	0xbe009e88	-0.12560475
141	0x3dbf676e	0.093458995
142	0x3c80e3e1	0.015733661
143	0x3ca9ecb8	0.02074276
144	0x3d99f029	0.0751651
145	0x3e0c35a7	0.13692342
146	0x3e0c78bd	0.13717933
147	0xbd5dc9fd	-0.05414771
148	0x3e0ec094	0.1394065
149	0xbd96480a	-0.07337959
150	0x3d842be0	0.06453681
151	0x3e2e70dd	0.17035241
152	0xbd0bafef	-0.03410333
153	0xbc668daa	-0.014071861
154	0xbdca1b2b	-0.09868463
155	0xbbe09a5d	-0.006854339
156	0x3de71a8f	0.112843625
157	0x3dab7d34	0.0837349
158	0x3dba249c	0.09089014
159	0x3ba9e25d	0.0051844553
160	0xbd952d35	-0.07284013
161	0xbd6d2a4b	-0.05790166
162	0x3e558d16	0.20854601
163	0x3d928c1d	0.07155631
164	0xbe2042fa	-0.1565055
165	0x3bdfc227	0.0068285647
166	0x3e502fe3	0.20330767
167	0x3e5abd1e	0.21361205
168	0xbdcddbc5	-0.10051683
169	0x3e1379f0	0.14401984
170	0x3e01b8e7	0.12668191
171	0x3d308504	0.043095604
172	0x3d5baab9	0.05362961
173	0xbe31c38e	-0.17359754
174	0x3deba994	0.11506954
175	0x3e390200	0.18067169
176	0x3d0df233	0.034654807
177	0xbe25bbc4	-0.16184908
178	0x3e4c517f	0.19952963
179	0xbc6f8279	-0.014618509
180	0xbd85172f	-0.064985625
181	0xbd1ff465	-0.039051432
182	0xbc5d0cc2	-0.013491811
183	0x3d8d6741	0.0690446
184	0x3ddada4b	0.10686167
185	0xbe078cbf	-0.13237284
186	0xbd782173	-0.060578775
187	0x3d05f577	0.032704797
188	0x3d86be72	0.06579293
189	0xbe107f25	-0.14111002
190	0xbd99cea7	-0.07510119
191	0x3ca26ac8	0.019826308
192	0xbccac2c8	-0.024751082
193	0x3d40253c	0.04691051
194	0x3dae9efa	0.08526416
195	0xbd5b2250	-0.05349952
196	0xbe238a7f	-0.15970801
197	0xbe0178d0	-0.12643743
198	0xbdba8eba	-0.09109254
199	0xbe26a1be	-0.16272637
200	0xbdaca7f1	-0.0843047
201	0xbd8332a8	-0.06406146
202	0x3e26ec9f	0.16301201
203	0xbd678de8	-0.056531817
204	0xbd82f378	-0.06394094
205	0x3b0218c0	0.0019851178
206	0xbdd0e38e	-0.101996526
207	0x3d3fb310	0.046801627
208	0x3d37d8b4	0.0448844
209	0x3d99ad22	0.075037256
210	0xbddd51f2	-0.108066455
211	0xbdb577fc	-0.08860776
212	0x3dc85586	0.09781937
213	0x3c8084d8	0.015688345
214	0xbdc1db1e	-0.094656214
215	0xbe09ba52	-0.13449982
216	0xbe3fab3c	-0.18717664
217	0xbcb43f0b	-0.022002717
218	0x3d8a1833	0.06742897
219	0xbe017c34	-0.12645036
220	0xbdd6e536	-0.10492937
221	0xbd2b277f	-0.041785713
222	0x3d55d2a6	0.052202843
223	0x3e050367	0.12989579
224	0xbe1b80ce	-0.15185854
225	0x3e3be9c6	0.18350896
226	0x3cde1039	0.027107345
227	0x3cc1e611	0.023669275
228	0x3c2d0712	0.010560768
229	0x3da7e218	0.08197421
230	0xbe21b616	-0.15792117
231	0xba8f9e12	-0.0010957143
232	0xbdacfbd4	-0.0844647
233	0xbcfa1511	-0.030527623
234	0x3cafc0ce	0.021454241
235	0x3d7d026f	0.0617699
236	0xbddc91ba	-0.10769983
237	0x3cbbcb14	0.022923984
238	0x3e09dc7f	0.13463019
239	0xbc1fa395	-0.009743591
240	0xbd51a944	-0.051186815
241	0xbe233477	-0.15937982
242	0xbe3acf10	-0.1824305
243	0x3d014407	0.031559017
244	0x3da512d1	0.080602296
245	0xbdd57292	-0.10422243
246	0x3df82d62	0.12118031
247	0x3dd89e22	0.105770364
248	0x3dd8a57b	0.10578438
249	0x3e241340	0.16022968
250	0xbe278fb0	-0.16363406
251	0xbe161b37	-0.14658819
252	0x3d4e0e52	0.050306626
253	0x3e5c7e31	0.21532513
254	0x3d88e9bc	0.06685206
255	0x3e4132b2	0.18866995

conv1.0.bias f4 [32]
0	0xbbb5552b	-0.0055338345
1	0x3e467946	0.193822
2	0x3daf3df8	0.085567415
3	0xbe3a2d9b	-0.1818146
4	0xbe2a8311	-0.1665156
5	0x3dc7625c	0.097355574
6	0xbd448433	-0.047977637
7	0xbe31bd4a	-0.17357364
8	0x3c62c1db	0.013840164
9	0x3db092a9	0.08621723
10	0x3dff91de	0.12478994
11	0xbe1b7345	-0.1518069
12	0xbd503d2e	-0.050839595
13	0x3e12f51e	0.14351317
14	0xbd31c305	-0.043398876
15	0xbe0b1c29	-0.13584961
16	0xbdf0bcce	-0.11754762
17	0x3e04d221	0.12970783
18	0xbe070603	-0.13185887
19	0x3e6d7458	0.23188913
20	0xbab94a91	-0.0014136602
21	0x3e2f4941	0.17117788
22	0xbdf98091	-0.12182725
23	0x3e6ac3f4	0.22926313
24	0x3dc771d5	0.097385086
25	0x3cecbbe4	0.028898187
26	0xbe10ffa6	-0.14160022
27	0x3be369de	0.0069401106
28	0xbe00dd27	-0.12584363
29	0xbe4f9cb6	-0.20274624
30	0xbe1fcc1b	-0.15605204
31	0xbd0a0327	-0.033694413

conv2.0.weight f4 [16, 32, 3, 3]
0	0x3ba86667	0.0051391604
1	0x3d21f8ad	0.039543796
2	0xbcec583a	-0.028850663
3	0xbd668e9b	-0.056288343
4	0xbd09240a	-0.033481635
5	0xbd4027f8	-0.046913117
6	0x3d4d8879	0.05017898
7	0xbc790374	-0.015198577
8	0x3bf4b179	0.0074674455
9	0x3c1718be	0.009222208
10	0xbd1cd523	-0.0382892
11	0xbca0370c	-0.019557498
12	0xba9625f8	-0.0011455407
13	0x3d189c14	0.037258223
14	0x3d0c9263	0.034319293
15	0x3bee4e32	0.007272505
16	0x3d5fbaf8	0.054621667
17	0xbc67423c	-0.014114913
18	0xbcb66d7f	-0.022269009
19	0xbc00ec7b	-0.007868881
20	0x3cc5c499	0.024141597
21	0xbd656421	-0.056003693
22	0xbcb9fc1d	-0.022703225
23	0xbc93020d	-0.017945314
24	0x3d0cca89	0.03437284
25	0xb9c2f24a	-0.00037183083
26	0x3dd8a9d8	0.1057927
27	0x3c22e184	0.009941462
28	0xbd0b3414	-0.033985212
29	0xbc06bab8	-0.008223228
30	0xbcebd470	-0.028787822
31	0xbcef4997	-0.029209895
32	0x3d2059e1	0.039148215
33	0xbd40c335	-0.047061164
34	0x3d6759d5	0.056482155
35	0xbc8e6a5e	-0.017384704
36	0xbbee240e	-0.0072674816
37	0x3cb8adfe	0.022543903
38	0xbd3bb43e	-0.04582619
39	0x3d4b8f8f	0.049697455
40	0x3d578123	0.05261339
41	0x3d3668c8	0.04453352
42	0xbc85fb56	-0.016355198
43	0x3cc4c0a3	0.024017638
44	0x3d415208	0.04719737
45	0x3d40301c	0.04692088
46	0xbc7b8d2a	-0.01535348
47	0xbd063401	-0.03276444
48	0x3d632627	0.055456307
49	0xbd58e101	-0.052948955
50	0x3c493be5	0.012282346
51	0xbceb3bca	-0.028715033
52	0x39d4422b	0.0004048509
53	0xbcaa4ffc	-0.020790093
54	0xbd77d615	-0.0605069
55	0xbcfb5bbe	-0.030683395
56	0x3b47ae7c	0.003046899
57	0xba56baac	-0.00081912684
58	0xbcf8c2c1	-0.030366303
59	0xbc7415bd	-0.014897761
60	0x3d6ade63	0.05734099
61	0x3d09d0b9	0.03364632
62	0xbbb6ae56	-0.0055749817
63	0xbc8e0192	-0.017334733
64	0xbcd1a64e	-0.025591996
65	0xba936b00	-0.0011247098
66	0xbc297408	-0.010342605
67	0xbcd2e3e6	-0.025743436
68	0xbc6ddb3c	-0.014517602
69	0x3b1388b0	0.0022511892
70	0x3b930fa8	0.0044879504
71	0xbc666e20	-0.014064342
72	0xbcd71940	-0.026257157
73	0x3ad9a6d4	0.0016605505
74	0xbd5d73f3	-0.054065656
75	0xbca86f89	-0.020560997
76	0x3d298fef	0.04139703
77	0xbd3f2b40	-0.046672106
78	0x3ca3ee30	0.020011038
79	0xbbd80d6e	-0.006593398
80	0x3ce671f5	0.02813051
81	0xbd70c6ba	-0.05878327
82	0x398dc41e	0.00027039734
83	0xbc7badb4	-0.015361238
84	0xbcc82879	-0.024433361
85	0xbd3391f8	-0.04384038
86	0x3c8b7b4a	0.017026562
87	0x3d921475	0.07132808
88	0x3df41fb3	0.11920109
89	0x3d4a03f3	0.049320173
90	0xbd32e3a0	-0.04367411
91	0x3aa5a45b	0.0012637483
92	0xbd66aa02	-0.056314476
93	0xbd1599fa	-0.036523797
94	0x3cc8a336	0.024491888
95	0xbba3135a	-0.004976672
96	0x3dddbd0e	0.10827075
97	0x3d44049f	0.04785597
98	0x3d936dd2	0.07198681
99	0xbd3c0a18	-0.045908064
100	0x3cd3aec5	0.025840173
101	0xbd476072	-0.04867596
102	0xbc92d612	-0.017924342
103	0xbdabdea5	-0.083920754
104	0x3ba7d2fd	0.0051215873
105	0x3d3bde1d	0.04586612
106	0xbd0ad529	-0.03389469
107	0x3d4f47a6	0.05060544
108	0x3c91b12f	0.017784683
109	0xbbf2c6b1	-0.00740894
110	0x3cc223be	0.023698684
111	0xbce6d258	-0.028176472
112	0xbd1bc3ed	-0.038028646
113	0x3d4cac56	0.04996904
114	0x3cbba853	0.022907412
115	0xbd487083	-0.048935425
116	0xbcfd768a	-0.030940313
117	0xbc6f1014	-0.014591236
118	0xbd16697e	-0.0367217
119	0xbd1637c7	-0.036674287
120	0xbb31daf3	-0.002713856
121	0x3d862fba	0.06552072
122	0xbc943ce4	-0.018095441
123	0x3c559b2a	0.013037482
124	0x3d3bdb5e	0.0458635
125	0xbd1a658e	-0.037694506
126	0x3d02e03c	0.031952128
127	0x3c1c466f	0.009538277
128	0x3cd473e3	0.025934165
129	0x3c94882e	0.018131342
130	0xbc757b54	-0.014983017
131	0xbd2d47e0	-0.042304873
132	0xbcd6350c	-0.026148342
133	0x3d62773e	0.0552895
134	0x3cc42322	0.023942534
135	0xbd16df14	-0.036833838
136	0x3d1668d3	0.036721062
137	0x3a812e98	0.0009855805
138	0xbd588681	-0.052862648
139	0x3caba1f1	0.020951243
140	0xbc7967cf	-0.015222504
141	0x3cba1e8c	0.022719644
142	0xbbb5875d	-0.005539818
143	0x3c57e04d	0.013176036
144	0x3b27adae	0.00255857
145	0xbc12b298	-0.008953713
146	0x3d3cfed9	0.04614148
147	0x39979624	0.00028912828
148	0xbd91fdf0	-0.07128513
149	0xbd1b07f9	-0.0378494
150	0x3b3f1045	0.0029153985
151	0xbbba0dbd	-0.0056779073
152	0x3cd34168	0.025788024
153	0xbc07c01e	-0.00828555
154	0x3d780e57	0.06056055
155	0x3d4fd81d	0.05074321
156	0xbc9b8cdc	-0.018988065
157	0x3cc580e5	0.024109313
158	0x3c98b0b7	0.018638952
159	0x3c9231fc	0.0178461
160	0x3d9c7c72	0.076409236
161	0x3d5e176b	0.054221552
162	0xbd8684e8	-0.065683186
163	0xbd9f7457	-0.07785862
164	0xbd3c2b5a	-0.04593978
165	0xbcb95eff	-0.022628305
166	0x3c6d64c4	0.014489356
167	0xbd0ef463	-0.034901034
168	0x3c0223d2	0.007943111
169	0x3c9a6436	0.018846612
170	0xbc739516	-0.014867088
171	0x3cbeb404	0.023279198
172	0x3db16504	0.08661845
173	0x3d856b5e	0.06514619
174	0x3d92d2ec	0.071691364
175	0x3d035186	0.03206017
176	0x3cce68fe	0.025196549
177	0x3ca893ab	0.020578226
178	0x3c9dba7e	0.019253965
179	0x3cd32383	0.02577377
180	0xbbb499f0	-0.005511515
181	0xbbb16924	-0.005414145
182	0xbd4adb04	-0.049525276
183	0x3d1ba3cf	0.037998017
184	0xbd2de80d	-0.04245763
185	0x3d71c49b	0.05902539
186	0x3cd1a88b	0.025593063
187	0xbb7e5c9c	-0.0038812524
188	0xbd2ff9da	-0.042962886
189	0x3d9d9709	0.07694823
190	0x3d9be655	0.07612292
191	0x3cf8ea66	0.030385207
192	0x3d76ba3f	0.060236212
193	0x3c574063	0.01313791
194	0xbd03aacd	-0.03214531
195	0xbc8e9da8	-0.01740916
196	0x3c1ac655	0.0094467
197	0x3d6eacc2	0.058270223
198	0xbd4d48eb	-0.050118368
199	0x3d4223cf	0.04739743
200	0x3ca3ffd6	0.020019453
201	0x3cce66e9	0.025195556
202	0x3d3e1d7f	0.04641485
203	0x3cd2f435	0.025751213
204	0x3a6dfede	0.00090788107
205	0xbd49c5bb	-0.049260836
206	0xbd41b00e	-0.04728704
207	0x3d2c2bc5	0.04203393
208	0x3d67fc71	0.05663723
209	0x3d85b73f	0.06529092
210	0xbb24712c	-0.002509187
211	0xbc6413e1	-0.013920755
212	0x3c1d315d	0.009594289
213	0x3c2e9991	0.01065673
214	0x3d355e41	0.04427934
215	0x3dc4bddb	0.096065246
216	0x3cf4edb5	0.029898504
217	0x3d151863	0.03640021
218	0x3d4d0ff4	0.050064042
219	0x3cf6df64	0.030135818
220	0x3c3b7f58	0.011443935
221	0x3c8a08d7	0.016849918
222	0xbd2d96d9	-0.042380188
223	0xbc8009d4	-0.015629686
224	0x3cf565f2	0.029955838
225	0xbc7f87c5	-0.015596335
226	0xbd6309fe	-0.05542945
227	0x3b7395a1	0.0037168043
228	0x3d5385f3	0.051641416
229	0xbc4a7aa1	-0.012358339
230	0xbd27f7b5	-0.041007716
231	0x3d800076	0.06250088
232	0x3d87ff48	0.06640488
233	0xbcc4d9b1	-0.024029585
234	0xbdadebe6	-0.0849226
235	0xbd719bb3	-0.058986377
236	0xbd25039a	-0.040286638
237	0xbcdb0813	-0.026737249
238	0xbdcdaec4	-0.100430995
239	0xbdcc02d8	-0.0996148
240	0x3d9530e9	0.072847195
241	0x3dc2efa6	0.095183656
242	0x3d0cfc18	0.034420103
243	0xbd5c5a6d	-0.053797174
244	0xbd808eb5	-0.06277219
245	0xbadfad8e	-0.0017065273
246	0xbc4df324	-0.012570176
247	0xbc775f41	-0.015098394
248	0xbcefa4e8	-0.029253438
249	0xbd102ec5	-0.035200853
250	0x3d577bdd	0.05260836
251	0x3cb79fe2	0.022415105
252	0xbd450e44	-0.048109308
253	0x3cca2d8c	0.024679922
254	0x3c9a4b62	0.018834773
255	0x3c424d17	0.0118592

conv2.0.bias f4 [16]
0	0x3e339f0f	0.17541145
1	0xbd746571	-0.059667055
2	0x3d2b77c4	0.041862264
3	0xbd71fda7	-0.059079792
4	0xbc9c27c1	-0.019061925
5	0xbbfa05ad	-0.007630071
6	0xbd015692	-0.0315767
7	0xbce40ec2	-0.027839068
8	0x3dcb04b6	0.09913008
9	0xba1a2a88	-0.00058809714
10	0x3df19959	0.11796827
11	0xbd2e11af	-0.042497333
12	0xbd1c347e	-0.038135998
13	0x3dcee930	0.10103071
14	0x3badbc8a	0.0053020166
15	0xbcbc0b75	-0.022954682

fc1.1.weight f4 [3, 560]
0	0x3e07428a	0.13208976
1	0x3e17620d	0.14783497
2	0x3de8d496	0.113686725
3	0x3dab127a	0.083531335
4	0x3e219e7c	0.15783113
5	0x3cf17b00	0.029477596
6	0x3cd242d5	0.025666634
7	0x3cd17e1d	0.02557283
8	0xbd35de4e	-0.04440146
9	0xbb71c5c0	-0.003689155
10	0x3a07344b	0.00051576336
11	0xbb2ef91a	-0.002669877
12	0xbc85f866	-0.016353797
13	0xbc82d993	-0.015972888
14	0xbcec11df	-0.028817115
15	0xbbb719a4	-0.0055877734
16	0xbcbe6469	-0.023241239
17	0x3cc6a768	0.024249747
18	0xbd30552d	-0.04304998
19	0xbd354643	-0.04425646
20	0x3db12951	0.086504586
21	0x3d5d2f95	0.054000456
22	0x3decdc73	0.11565485
23	0x3ddeab3a	0.108725026
24	0x3d8207c6	0.06349139
25	0x3b89c364	0.0042042006
26	0xbd1657e8	-0.036704928
27	0xbd021bba	-0.031764723
28	0xbd6c264c	-0.05765371
29	0xbce52029	-0.027969437
30	0x3c882345	0.01661838
31	0xbbed6a18	-0.0072453134
32	0x3d3cc35b	0.046084743
33	0xbd1780bc	-0.036988005
34	0x3d0de4c0	0.03464198
35	0x3db18f13	0.08669867
36	0x3d7c4d62	0.061597236
37	0x3ceb3680	0.028712511
38	0x3d9f5b2b	0.07781061
39	0x3c84fd31	0.016234012
40	0x3c7984f4	0.015229452
41	0xbd1830c5	-0.037155885
42	0xbc363eb4	-0.011123348
43	0x3cc91181	0.02454448
44	0x3d37f833	0.044914436
45	0x3cf82eac	0.030295692
46	0x3ce75396	0.028238099
47	0xbd0b9070	-0.034073293
48	0xbc71c21a	-0.01475575
49	0xbcc46f4c	-0.023978852
50	0xbd46e1a8	-0.048555046
51	0xbd689f53	-0.05679257
52	0xbdb0285b	-0.08601447
53	0xbd7a58a8	-0.061119705
54	0xbd13078a	-0.03589586
55	0x3cfec03a	0.03109752
56	0x3c73999d	0.014868167
57	0x3cb438eb	0.021999797
58	0x3d636d21	0.055523995
59	0x3d4ddf1c	0.0502616
60	0xbc87e636	-0.016589265
61	0xbc0269fb	-0.007959838
62	0xbd333eb9	-0.04376099
63	0xbd2a582f	-0.041588005
64	0x3b9b4ba8	0.0047392435
65	0xbc1d8f29	-0.009616652
66	0x3cb9d2ab	0.022683462
67	0x3c192c8e	0.009349002
68	0xbd2c40b2	-0.042053886
69	0xbd1f5dc5	-0.038907785
70	0x3cd40186	0.025879633
71	0x3d4c1992	0.049829073
72	0x3d41e56b	0.04733793
73	0xbce406de	-0.027835306
74	0xbd119db3	-0.035550784
75	0xbd3db5ed	-0.046316076
76	0x3c86607d	0.016403431
77	0xbc87907c	-0.016548388
78	0x3bf085d8	0.007340174
79	0xbbcaed9d	-0.0061928765
80	0xbd25ed6d	-0.04050963
81	0x3b9788c6	0.004624459
82	0xbd24babd	-0.04021715
83	0xbd36e989	-0.04465631
84	0x3bb5c946	0.0055476753
85	0xba2433f7	-0.0006263847
86	0x3c760d33	0.015017795
87	0xbc92a0f8	-0.017899022
88	0xbc5cf01a	-0.013484979
89	0x3ba28ef3	0.0049608885
90	0x3d08315e	0.033250205
91	0xbd0ab8e4	-0.03386773
92	0xbd059825	-0.0326158
93	0x3bf2424a	0.007393156
94	0xbc74b492	-0.014935629
95	0x3c8a5569	0.01688643
96	0xbc6aee13	-0.014338988
97	0xbd4076d7	-0.046988335
98	0xbb7233ef	-0.0036957224
99	0xbc4c2808	-0.012460716
100	0xbd0b8eae	-0.034071617
101	0xbcf89228	-0.03034313
102	0x3bac3130	0.005254887
103	0xbcb69701	-0.022288801
104	0xbd2c3c02	-0.042049415
105	0xbd124f34	-0.035720065
106	0x3c001bdf	0.007819145
107	0x3cad2a7f	0.021138428
108	0x3d0c37b2	0.034232803
109	0x3c7ea74d	0.015542817
110	0x3c31379c	0.010816481
111	0x3b4f8134	0.0031662704
112	0x3c1576a2	0.009122523
113	0xbd15a794	-0.036536768
114	0xbc759c9c	-0.014990952
115	0xbbc7cffb	-0.0060977913
116	0x3d05551f	0.03255188
117	0xbba10779	-0.004914221
118	0xbcbb07a6	-0.022830795
119	0xbc93595f	-0.017986951
120	0x3d1f73fb	0.038928967
121	0x3c330dc0	0.010928571
122	0xbb5cd9d9	-0.0033699183
123	0x3cff5102	0.031166557
124	0x3bf299d4	0.0074035916
125	0x3bfca061	0.0077095483
126	0x3b44379c	0.0029940372
127	0xbce39007	-0.027778639
128	0xbb963267	-0.004583645
129	0x3cffd736	0.03123055
130	0xbd06bc92	-0.03289468
131	0x3c9ad5f0	0.018900841
132	0xbbc1c847	-0.0059137675
133	0x3d0fe6e5	0.035132308
134	0xbcd64939	-0.026157962
135	0xbb14bf19	-0.002269691
136	0x3cd66c19	0.026174592
137	0xbc176241	-0.009239734
138	0x3d0f8050	0.035034478
139	0x3c87d84d	0.016582632
140	0x3c778891	0.015108244
141	0x3c9ee0be	0.019394275
142	0x3ae296a0	0.0017287321
143	0xbc9afb63	-0.018918699
144	0xbb26eece	-0.0025471929
145	0xbcc8c06f	-0.024505822
146	0xbd2220ae	-0.039581947
147	0x3c98d88e	0.018657949
148	0x3d062b74	0.032756284
149	0x3cb5add8	0.022177622
150	0x3cf9d0c0	0.030495048
151	0xbc39f898	-0.011350773
152	0x3cc17583	0.023615604
153	0xbd0ed8df	-0.034874793
154	0x3d08fef3	0.033446264
155	0x3b453238	0.0030089747
156	0x3cf73260	0.030175388
157	0x3d01d0fe	0.03169345
158	0x3d140347	0.036135938
159	0x3ca7aa84	0.02046705
160	0x3cabd8f5	0.020977477
161	0x3b082540	0.0020774156
162	0xbca0099a	-0.019535828
163	0xbcb3a723	-0.021930283
164	0xbc06dcb4	-0.008231331
165	0xbc1eeae0	-0.009699553
166	0x3d2a50d6	0.041580997
167	0x3cf321cc	0.029679202
168	0x3d28f981	0.04125357
169	0x3d1b871e	0.037970655
170	0xbc122584	-0.008920077
171	0xbc842a12	-0.016133342
172	0xbcd624b0	-0.02614054
173	0xbd19c6c7	-0.037543084
174	0xbd1e2964	-0.038613692
175	0x3c2d85bd	0.010590968
176	0xbc402b8c	-0.011729132
177	0x3cd4ab4c	0.025960587
178	0xbba72856	-0.005101244
179	0x3d234cc4	0.03986813
180	0xbd2714aa	-0.04079119
181	0x3b81b764	0.0039586294
182	0x3d09da1b	0.033655267
183	0x3d1224c6	0.0356796
184	0xbb58188b	-0.0032973613
185	0xbcca7024	-0.024711676
186	0x3cca074a	0.024661679
187	0x3d04db26	0.03243556
188	0x3ca456ff	0.020061014
189	0xbd0d596e	-0.034509115
190	0xba53d284	-0.00080803805
191	0x3c806189	0.015671508
192	0x3cb92cf2	0.02260444
193	0xbc316866	-0.010828113
194	0xbd183a51	-0.03716499
195	0x3cb699ac	0.022290073
196	0xbaa318eb	-0.0012443339
197	0xbcae8343	-0.021302825
198	0xbd11dd10	-0.035611212
199	0xbbf8349b	-0.0075746304
200	0x3d1742de	0.036929004
201	0xbcc9fb8a	-0.024656076
202	0x3d12a1cb	0.03579883
203	0x3d2483ff	0.040164944
204	0x3c5e9e30	0.0135875195
205	0xbd1bf766	-0.038077734
206	0x38dd756a	0.00010559971
207	0x3d1a886c	0.03772776
208	0xbc9601d2	-0.018311415
209	0xbbf53183	-0.007482709
210	0x3d67ec67	0.056621935
211	0x3dc089fe	0.0940132
212	0x3d5641f5	0.052308995
213	0x3da06aa7	0.07832842
214	0x3ce6d1fc	0.0281763
215	0xbd5d3edf	-0.054015037
216	0xbd1a6126	-0.037690304
217	0xbbccfa85	-0.00625545
218	0x3c1e5ec6	0.00966615
219	0xbd52141d	-0.051288713
220	0xbb88f12f	-0.004179142
221	0xba843797	-0.0010087368
222	0xbd1bf8e6	-0.038079165
223	0x3c705482	0.014668586
224	0xbb07c9a3	-0.002071955
225	0xbcf1da30	-0.029522985
226	0xbd20628f	-0.039156493
227	0xbd35e0a6	-0.044403695
228	0xbdc67b46	-0.09691481
229	0xbd430691	-0.047613684
230	0x3d140d11	0.036145274
231	0x3d1319b6	0.03591319
232	0xbc5f5f43	-0.013633552
233	0x3cf568f4	0.029957272
234	0x3d83efd6	0.064422294
235	0x3ca2d218	0.019875571
236	0xbd877141	-0.06613398
237	0x3c550973	0.013002741
238	0x3b57b20a	0.0032912516
239	0xbcdb2ae7	-0.026753856
240	0xbd0505d9	-0.03247628
241	0xbd03d6c2	-0.03218723
242	0x3c87dc30	0.016584486
243	0xbd359c12	-0.044338293
244	0xbd3a37b0	-0.045463264
245	0xbcf19546	-0.029490124
246	0xbd2fd8c3	-0.04293133
247	0x3c49fa50	0.012327746
248	0xbc1c8985	-0.009554272
249	0xba42ad3c	-0.00074263266
250	0x3b052338	0.0020315181
251	0x3c202a70	0.009775743
252	0x3d2ae96e	0.041726522
253	0xbcaa3534	-0.020777322
254	0xbc603ba0	-0.013686091
255	0xbd02a55b	-0.031895977

fc1.1.bias f4 [3]
0	0x3d6c6e85	0.057722587
1	0xba79a82b	-0.0009523655
2	0xbd59f8bb	-0.053215723
