TcgPocket/datascience/cnn/model_av/model_a_v1.pt (torch, 31215 bytes, 6 tensors)

conv1.0.weight f4 [32, 3, 3, 3]
0	0x3db3ff71	0.08788956
1	0xbe395ea1	-0.18102504
2	0xbdd9f4a3	-0.10642364
3	0xbe17f58e	-0.14839765
4	0xbde0c2ca	-0.10974653
5	0x3e2c0ff4	0.1680296
6	0xbd6a2583	-0.05716468
7	0x3e3966b6	0.18105587
8	0x3d5d2b7a	0.05399654
9	0xbca6d0aa	-0.02036317
10	0x3e596cb7	0.21232878
11	0xbdc6a713	-0.09699836
12	0xbe280fb3	-0.16412239
13	0x3dad0c6f	0.08449637
14	0x3dde3dc3	0.10851624
15	0xbe0a0b52	-0.13480881
16	0x3e2d51b0	0.16925693
17	0x3d293a50	0.041315377
18	0x3e3cef35	0.18450625
19	0x3d0e8ef9	0.034804318
20	0xbde53139	-0.11191029
21	0xbdc33264	-0.095310956
22	0x3dfebcd3	0.12438359
23	0x3d8f3344	0.069922
24	0xbe4108a7	-0.18850957
25	0xba7a2bf3	-0.0009543292
26	0xbde137ba	-0.10996957
27	0x3cd182fc	0.025575154
28	0xbe250178	-0.16113842
29	0x3e354896	0.1770347
30	0x3e367924	0.17819649
31	0x3da2cf89	0.079497404
32	0x3d71fcd4	0.059079006
33	0x3d9cad28	0.076502144
34	0x3d730795	0.059333403
35	0xb9fc0ca0	-0.00048074592
36	0x3e26c5f9	0.16286458
37	0xbdfc1e70	-0.12310493
38	0xbb471cc0	-0.0030382127
39	0x3d173bda	0.036922313
40	0xbd15da30	-0.036585033
41	0xbd8b38b3	-0.06797924
42	0x3e1c0172	0.15234926
43	0x3e319b7f	0.17344473
44	0xbdb46572	-0.08808412
45	0xbe0070ba	-0.12543002
46	0x3e040217	0.12891422
47	0x3e0c9a35	0.137307
48	0x3e514447	0.20436202
49	0xbd83c08e	-0.06433211
50	0xbdeb075e	-0.114760146
51	0x3e8064e7	0.25076982
52	0x3e2ea0cf	0.17053531
53	0x3e06b9a5	0.13156755
54	0x3e44b404	0.19209296
55	0x3dc47e23	0.09594371
56	0xbdae2f84	-0.08505157
57	0xbd581b6a	-0.05276052
58	0xbd83944f	-0.06424772
59	0x3e611e3b	0.21984188
60	0x3cdc58eb	0.026897868
61	0x3e08522a	0.13312593
62	0xbdceb3e7	-0.100929074
63	0x3d36d42f	0.044635948
64	0x3e55dbc1	0.2088461
65	0x3e514efb	0.20440285
66	0x3e13bd1a	0.14427605
67	0x3df95746	0.12174849
68	0x3c43e514	0.011956472
69	0x3e03458e	0.12819502
70	0x3c86e146	0.01646484
71	0x3d871bcc	0.06597099
72	0xbdfe2493	-0.1240932
73	0xbe64a7e1	-0.22329666
74	0xbe8561bc	-0.26051128
75	0xbe5f6ae2	-0.21818116
76	0xbe707864	-0.23483425
77	0xbb222b7b	-0.0024745155
78	0xbe646160	-0.2230277
79	0xbe3df694	-0.18551093
80	0xbde88182	-0.11352827
81	0xbe8413ba	-0.257963
82	0x3e24bc11	0.16087367
83	0x3d71ff79	0.05908153
84	0xbe651494	-0.22371131
85	0xbe11a454	-0.14222842
86	0x3d1bf9f8	0.038080186
87	0x3cc1469d	0.023593241
88	0x3dfdee2b	0.123989426
89	0xbb5a025e	-0.003326557
90	0xbe05ca28	-0.13065398
91	0x3e29b9f9	0.16574849
92	0x3cb72043	0.02235425
93	0xbdc9322c	-0.09824023
94	0x3e1300dc	0.14355797
95	0xbd25dffc	-0.04049681
96	0x3b8e117a	0.0043355795
97	0x3d086daf	0.033307727
98	0xbc0e3891	-0.008680479
99	0x3da9f17c	0.082980126
100	0x3e0f3d89	0.13988318
101	0x3e320a14	0.17386657
102	0xbd786d3b	-0.060651045
103	0x3e201fbc	0.15637106
104	0xbdf2ad08	-0.11849409
105	0xbdd566dc	-0.104200095
106	0xbe12352b	-0.14278094
107	0x3d8e8492	0.069588795
108	0xbde152e0	-0.11002135
109	0x3e1a07c8	0.15042031
110	0x3e3c63b5	0.1839741
111	0x3e1485b6	0.14504132
112	0xbdbdd12e	-0.092684135
113	0x3d171c20	0.036892056
114	0xbe26f0d2	-0.16302803
115	0xbe480f9f	-0.19537209
116	0xbe1f2fc5	-0.15545566
117	0x3df64b66	0.120261
118	0x3e38c542	0.18043998
119	0x3d1c1a78	0.03811118
120	0xbdf4660e	-0.11933528
121	0x3dd4c08a	0.103882864
122	0x3e513ae4	0.20432621
123	0xbe633e7c	-0.22191805
124	0xbd20319d	-0.039109815
125	0xbe45cff2	-0.19317606
126	0xbdd48000	-0.103759766
127	0x3da3e538	0.080027044
128	0xbddff6d8	-0.109357536
129	0x3e0c7b29	0.13718857
130	0x3dd5b72f	0.1043533
131	0x3ca7b33e	0.020471212
132	0xbca000a2	-0.019531552
133	0xbdc26de7	-0.094936185
134	0xbd8e8f99	-0.06960983
135	0xbe06400b	-0.13110368
136	0xbde32854	-0.11091676
137	0xbc913001	-0.017723085
138	0x3d4be996	0.04978331
139	0xbdaf675b	-0.08564635
140	0xbdbd46b9	-0.09242005
141	0xbc999154	-0.018746056
142	0x3d20e1e5	0.03927793
143	0x3e24bc2a	0.16087404
144	0xbd0874b2	-0.033314414
145	0xbe0cc1bc	-0.13745779
146	0xbc13f928	-0.009031571
147	0xbdeebeb5	-0.11657468
148	0xbdedbbeb	-0.11608108
149	0x3d84d0bf	0.06485128
150	0x3d997428	0.07492858
151	0x3e84e361	0.25954726
152	0xbdb67c80	-0.08910465
153	0x3dace8b6	0.084428236
154	0xbded407d	-0.11584566
155	0xbdaf94db	-0.08573314
156	0x3d34ab2a	0.044108547
157	0xbdf1ba7d	-0.11803148
158	0x3b5fbde9	0.0034140295
159	0x3e2b8a34	0.16751939
160	0xbbb99525	-0.0056635314
161	0xbd7c6f94	-0.061629847
162	0x3afe977f	0.0019423811
163	0xbde34b13	-0.11098304
164	0xbd29d3cf	-0.041461762
165	0xbe14202f	-0.14465402
166	0x3e599e4d	0.21251793
167	0x3d948693	0.072522305
168	0x3d1634b1	0.036671344
169	0x3e5c7c89	0.21531881
170	0x3e66e5ae	0.22548553
171	0x3e0c3645	0.13692577
172	0x3e5531e2	0.2081981
173	0x3e8c2ba0	0.27377033
174	0xbdf814e5	-0.1211336
175	0x3e0f5ce2	0.14000276
176	0xbd7140a8	-0.05889955
177	0x3e203fbd	0.15649314
178	0x3e8729d8	0.26399112
179	0xbcd8683f	-0.026416896
180	0x3e025eec	0.12731522
181	0x3e739dac	0.23790616
182	0x3e335db9	0.17516221
183	0x3ceed4aa	0.02915414
184	0x3d60667f	0.054785248
185	0x3e662272	0.22474077
186	0x3e4ee430	0.20204234
187	0x3e739f51	0.23791243
188	0x3d981e7c	0.074276894
189	0xbcf2d095	-0.029640475
190	0x3d7ef9b6	0.06224986
191	0xbe0a3e0d	-0.13500233
192	0xbcf75c9c	-0.030195527
193	0x3e6e80ad	0.23291273
194	0xbdc9ad53	-0.09847512
195	0x3e06f3a1	0.13178875
196	0x3d415b42	0.04720617
197	0x3e000f83	0.12505917
198	0x3de25dc6	0.11053042
199	0xbddbcfd8	-0.107330024
200	0xbcee5d24	-0.029097147
201	0x3d6a949e	0.05727064
202	0x3df17949	0.117907114
203	0x3e69f7f9	0.228485
204	0x3d1bcba4	0.038036004
205	0x3d43bb44	0.047786012
206	0xbd2e5f63	-0.042571437
207	0x3d193aaa	0.037409462
208	0x3d83832c	0.064215034
209	0xbd54c69f	-0.051947232
210	0x3e736679	0.23769559
211	0x3e4dcdce	0.2009804
212	0x3d1eea43	0.038797628
213	0xbdbfba6f	-0.09361731
214	0x3e484e87	0.19561206
215	0x3e18729f	0.14887474
216	0xbdc2ff59	-0.0952136
217	0x3d242f24	0.04008402
218	0x3de17a48	0.110096514
219	0xbd4539d7	-0.048150863
220	0x3e23f03e	0.16009614
221	0x3e0ddd1b	0.13853876
222	0x3dd151d8	0.102206886
223	0x3e2892d5	0.16462262
224	0xbdce6c68	-0.100792706
225	0x3e44adec	0.19206971
226	0x3defcf4b	0.1170946
227	0x3d9ae636	0.075634405
228	0x3dd50bef	0.10402667
229	0x3dbb0a93	0.09132876
230	0x3d9fef2b	0.078092895
231	0x3d3d62dd	0.04623686
232	0xbe2c5cee	-0.16832325
233	0x3d92b523	0.07163455
234	0x3b66ca1c	0.0035215681
235	0xbe874ed7	-0.26427338
236	0xbe7e5a21	-0.24839069
237	0xbe110a4f	-0.14164089
238	0xbe41e9ab	-0.18936794
239	0xbe205d8d	-0.15660687
240	0xbde134e3	-0.109964155
241	0x3dc4575e	0.095869765
242	0xbd2d667b	-0.04233406
243	0x3e29e172	0.16589907
244	0x3dafc287	0.08582025
245	0x3e0a2d8f	0.13493942
246	0x3db71a6e	0.08940588
247	0x3e46733a	0.19379893
248	0x3c566949	0.013086625
249	0xbdf94e15	-0.12173096
250	0x3d7dfbe7	0.06200781
251	0x3d611fbc	0.054961905
252	0x3e3970d0	0.18109441
253	0x3dcd5d4d	0.10027561
254	0xbd99cd77	-0.075098924
255	0x3cb4d1cb	0.022072693

conv1.0.bias f4 [32]
0	0x3e233264	0.15937191
1	0xbe14f03d	-0.14544769
2	0x3e2fe96e	0.1717889
3	0x3d4e2542	0.0503285
4	0x3e52ead4	0.20597392
5	0x3eaf88a8	0.34283948
6	0xbe18e819	-0.14932288
7	0xbe296082	-0.16540721
8	0xbdac4c04	-0.08412936
9	0xbe38a117	-0.18030201
10	0x3e8e430b	0.27785525
11	0xbd6b64bc	-0.057469115
12	0x3e950dbf	0.2911205
13	0xbd9eee77	-0.07760327
14	0xbe1ef44f	-0.15522884
15	0xbd77eec8	-0.060530454
16	0xbe50a593	-0.20375662
17	0xbd1c61ba	-0.038179137
18	0xbe53e7f0	-0.20693946
19	0x3e173ae9	0.14768566
20	0xbdcb8ade	-0.09938596
21	0x3e55a990	0.20865464
22	0x3e992820	0.29913425
23	0x3e029541	0.12752248
24	0xbdcd3d11	-0.10021413
25	0x3dd03520	0.10166383
26	0xbe1a3091	-0.15057589
27	0xbe4930c0	-0.19647503
28	0xbdc015d3	-0.09379163
29	0x3e84644a	0.25857764
30	0xbe098dea	-0.13433042
31	0x3e58fe5b	0.21190779

conv2.0.weight f4 [16, 32, 3, 3]
0	0x3cc4e519	0.024035024
1	0x3cae7567	0.021296216
2	0x3d8333f6	0.06406395
3	0xbc4e415c	-0.012588825
4	0xbd3bf6f9	-0.04588983
5	0x3cd0f736	0.025508504
6	0xbd692d84	-0.056928173
7	0x3bead9fc	0.007167099
8	0x3ceee471	0.029161664
9	0xbd706186	-0.058686756
10	0x3d1b79bf	0.037957903
11	0xbae0e3be	-0.0017157716
12	0x3c09a84c	0.0084019415
13	0x3d3dbe9b	0.046324354
14	0xbb9903a6	-0.0046696244
15	0xbc404aaa	-0.011736551
16	0x3d6a4862	0.057197936
17	0xbcd115d5	-0.025523106
18	0x3d36cb46	0.04462745
19	0x3a940458	0.0011292798
20	0x3c07692f	0.008264824
21	0xbc7084ff	-0.014680146
22	0x3b914d4a	0.0044342624
23	0x3d0cd9c5	0.03438737
24	0xbcaf2471	-0.021379681
25	0x3ceeb32d	0.029138172
26	0x3d0ab48e	0.033863597
27	0xbc191c85	-0.0093451785
28	0x3d24adb3	0.040204715
29	0x3d9cb2e7	0.076513104
30	0x3a515dd2	0.00079866976
31	0x3d281769	0.04103795
32	0xbc7f66d7	-0.015588484
33	0xbd4f380f	-0.05059057
34	0xbd71aba2	-0.059001572
35	0x3d4f970e	0.050681166
36	0xbcb4bd32	-0.022062872
37	0x3d1bbe78	0.038023442
38	0x3d56ce31	0.052442733
39	0xbc87caaa	-0.01657613
40	0xbd5dfd2b	-0.054196518
41	0x3d501575	0.050801713
42	0x3d1727da	0.03690324
43	0xbc971cb7	-0.01844631
44	0x3d1a0b57	0.03760847
45	0x3d28bf74	0.04119821
46	0xbcff4a19	-0.031163262
47	0x3d635024	0.05549635
48	0x3d5a7481	0.053333763
49	0xbbf1d89f	-0.0073805596
50	0x3dc3fec6	0.095700786
51	0x3cc5b27a	0.024132956
52	0xbd3bb7a7	-0.04582944
53	0xbd403932	-0.046929546
54	0x3ce713c9	0.028207676
55	0xbd30762f	-0.04308146
56	0xbc93f9af	-0.018063394
57	0x3bfb5763	0.0076703294
58	0xbd402236	-0.046907626
59	0xbccad984	-0.024761923
60	0x3c652930	0.013986871
61	0xbbd7cd24	-0.006585734
62	0x3ca1cfd2	0.019752417
63	0xbd0fef18	-0.035140127
64	0x3aa58e55	0.0012630919
65	0x3d9c467b	0.076306306
66	0xbc59d551	-0.0132954875
67	0xbd2bb2ef	-0.04191869
68	0xbbad536b	-0.005289485
69	0x3c260ccb	0.010134886
70	0xbd4b507b	-0.0496373
71	0x3b87fdb5	0.0041501173
72	0xbd5c5cf7	-0.053799596
73	0xbc95e92e	-0.018299665
74	0x3c0533ec	0.008130055
75	0x3cb14f42	0.021644238
76	0x3b2195c6	0.0024655922
77	0x3c47fc71	0.012206183
78	0x3dae0346	0.08496718
79	0xbc41d31e	-0.011830119
80	0x3d4a42bc	0.04938005
81	0x3d408c23	0.047008645
82	0xbcadeec6	-0.02123202
83	0x3d32be00	0.04363823
84	0x3c959b19	0.018262433
85	0xbdb07029	-0.08615143
86	0x3b5471a0	0.0032416359
87	0xbc81ed7c	-0.015860312
88	0x3b67277a	0.0035271333
89	0xbb74c6a4	-0.0037349844
90	0xbb5b6c45	-0.0033481282
91	0xbd2c00a6	-0.041992806
92	0x3bf902b2	0.0075991983
93	0x3d1d1eb5	0.038359363
94	0x3d6115e2	0.05495251
95	0x3d597e21	0.0530988
96	0xbd0a3951	-0.033746067
97	0xbb6b0840	-0.0035863072
98	0xbc94045f	-0.01806849
99	0xbdb97f89	-0.090575285
100	0x3c889a2b	0.016675076
101	0xbcc334cd	-0.023828888
102	0xbc9f4b40	-0.019445062
103	0xbdc1260b	-0.09431084
104	0xbc40129b	-0.011723186
105	0xbcbf3ccf	-0.023344425
106	0x3ce7b68b	0.028285285
107	0xbd1f8467	-0.038944628
108	0xbc754a30	-0.014971301
109	0x3d74715c	0.05967842
110	0xbcf79902	-0.030224327
111	0xbd5e5ca4	-0.054287568
112	0x3cf08bd2	0.029363547
113	0xbbb8463f	-0.0056236084
114	0xba2691fc	-0.0006354151
115	0xbd9cd0a1	-0.0765698
116	0xbd5dbb35	-0.054133613
117	0xbd854385	-0.06507019
118	0xbcb78511	-0.022402318
119	0x3b903bac	0.0044016447
120	0xbdaa0c12	-0.083030835
121	0x3c885338	0.016641244
122	0xbd02a208	-0.031892806
123	0xbcc1f8fe	-0.023678299
124	0xbd35dd1f	-0.04440033
125	0x3b9d4269	0.0047991765
126	0x3c9fb560	0.019495666
127	0x3d06cf04	0.03291227
128	0xbd079f54	-0.03311093
129	0x3c94b68d	0.018153453
130	0x3b86a70c	0.004109269
131	0xbd2123f7	-0.03934094
132	0x3d3780d7	0.044800606
133	0x3d5a0297	0.053225126
134	0x3d91d3fb	0.0712051
135	0xbd550cbf	-0.05201411
136	0xbd80d325	-0.062902726
137	0x3dc167ae	0.094436035
138	0x3ca23d64	0.019804664
139	0xbc93752f	-0.018000213
140	0x3d825baa	0.0636514
141	0xbbe1f15e	-0.0068952283
142	0xbd7db696	-0.061941706
143	0xbccd6c15	-0.025075952
144	0xbcb832ed	-0.02248522
145	0x3c64c96e	0.01396404
146	0x3d31b844	0.04338862
147	0xbd832e65	-0.064053334
148	0xbd6ed8a3	-0.05831207
149	0x3c0ad1d7	0.008472881
150	0x3c6c3612	0.014417188
151	0x3bab1917	0.005221497
152	0x3cec8919	0.028873967
153	0xbc177e9e	-0.0092464965
154	0x3ca83c84	0.020536669
155	0x3cee26b0	0.029071182
156	0x3d0740a0	0.033020616
157	0x3ca44eea	0.02005716
158	0xbcc6df05	-0.024276266
159	0xbd1f0657	-0.038824406
160	0xbca2a917	-0.019856019
161	0xbd00104e	-0.03126555
162	0x3d5a5271	0.05330128
163	0x3da23a1c	0.0792124
164	0x3dd18218	0.102298915
165	0xbd85a676	-0.065258905
166	0xbcb8c443	-0.022554522
167	0x3c01ec39	0.007929855
168	0xbd958b4a	-0.07301958
169	0x3d1a3fda	0.03765855
170	0x3b6405fc	0.0034793606
171	0x3cf7bc65	0.0302412
172	0x3d1704f0	0.036869943
173	0x3dc24676	0.094860956
174	0xbd6d69d7	-0.057962265
175	0xbdaa84f4	-0.0832614
176	0x3a62f37e	0.0008657499
177	0xbb2af305	-0.0026084792
178	0xbaea20ed	-0.0017862596
179	0x3d3967a4	0.045264855
180	0xbceb4b3c	-0.028722398
181	0x3d485e53	0.04891808
182	0x3caa5778	0.020793661
183	0x3d6ff2f0	0.058581293
184	0x3d16943a	0.036762454
185	0x393cc18d	0.0001800118
186	0xbd8df62a	-0.06931718
187	0xbd307905	-0.043084163
188	0x3cfff0b9	0.031242715
189	0x3d651100	0.055924416
190	0xbbe29126	-0.0069142757
191	0x3d335559	0.043782566
192	0x3cf182b9	0.029481279
193	0x3d142d47	0.036175992
194	0x3c388f48	0.01126463
195	0x3d762f8a	0.06010393
196	0x3cbfdf93	0.023422038
197	0x3c00b5bf	0.007855832
198	0x3ccab25f	0.024743257
199	0xbd580a93	-0.05274446
200	0xbccc7ab2	-0.02496085
201	0xbc82efe3	-0.015983528
202	0x3c5ede4b	0.013602803
203	0x3d06b801	0.032890324
204	0xbd15c871	-0.03656811
205	0xbdb55b95	-0.088553585
206	0xbcf94665	-0.030429075
207	0x3dc9d6e6	0.09855442
208	0x3d916bda	0.07100649
209	0xbc33f898	-0.010984562
210	0x3e01f074	0.12689382
211	0x3decbe4d	0.115597345
212	0x3dbb018e	0.09131156
213	0x3d387017	0.045028772
214	0x3e1a4488	0.15065205
215	0x3e03d96e	0.12875912
216	0xbcc1c39a	-0.02365284
217	0x3c8b0b7a	0.016973246
218	0x3cf8c4ee	0.03036734
219	0xbcffb8b2	-0.031216
220	0xba761fa8	-0.00093888724
221	0x3c90f27a	0.017693747
222	0xbd13894d	-0.036019612
223	0xbb8f1229	-0.0043661785
224	0x3c8da882	0.017292265
225	0x3d251651	0.040304486
226	0x3d6d6f9c	0.057967767
227	0xbbe9b19e	-0.0071317693
228	0x3df3f958	0.11912793
229	0x3d6918e3	0.0569085
230	0x3928d7e9	0.00016102161
231	0x3e13119b	0.14362185
232	0x3e0e975d	0.13924928
233	0x3e164a14	0.14676696
234	0x3d40d40c	0.047077224
235	0x3d54c550	0.051945984
236	0x3d4761bd	0.048677195
237	0xbcd34139	-0.025787937
238	0xbd929a1f	-0.071583025
239	0xbd72f385	-0.05931427
240	0xbd273a53	-0.040827107
241	0x3d3ee199	0.046601865
242	0x3c96c407	0.01840402
243	0x3c767556	0.0150426235
244	0x3b87f4c6	0.0041490523
245	0xbd1d5fe4	-0.038421527
246	0xbc207539	-0.009793573
247	0xbbe1f945	-0.0068961703
248	0xbc491f27	-0.012275494
249	0x3d291f02	0.041289337
250	0x3d2cf1fc	0.04222296
251	0xbd1219b5	-0.035669047
252	0x3d02ebd9	0.031963203
253	0x3daf356e	0.08555113
254	0x3d0d15e1	0.034444693
255	0xbd08a9e9	-0.033365164

conv2.0.bias f4 [16]
0	0x3d4aa079	0.049469445
1	0x3d025912	0.031823225
2	0xbd8b5c3f	-0.06804704
3	0xbb77ca0b	-0.0037809636
4	0xbc648245	-0.013947074
5	0xbabfae9c	-0.0014624181
6	0x3dc1aad4	0.09456411
7	0x3c924573	0.017855382
8	0x3d9ece94	0.077542454
9	0x3babd1af	0.005243502
10	0xbd839b35	-0.06426088
11	0xbd6d71a4	-0.057969704
12	0x3c0dd1a7	0.008655942
13	0xbc62764a	-0.013822148
14	0xbc9392e7	-0.018014384
15	0x3e053330	0.13007808

fc1.1.weight f4 [3, 560]
0	0x3cbc1f26	0.022964071
1	0xbc56cf0a	-0.013110885
2	0x3c942316	0.018083137
3	0xbce133f8	-0.027490601
4	0xbd8b0fe6	-0.06790142
5	0xbd51c3ba	-0.05121205
6	0xbd09656b	-0.033543985
7	0xbd89244f	-0.066963784
8	0xbd89f0a1	-0.067353494
9	0x3c61d2a6	0.013783133
10	0xbd217b1a	-0.03942404
11	0xbba331b1	-0.004980289
12	0x3c7e891e	0.015535621
13	0xbd3fddf6	-0.046842538
14	0xbd2979bc	-0.04137586
15	0x3c327430	0.010891959
16	0x3b86cb07	0.004113558
17	0xbca75a0e	-0.020428684
18	0xbd054b4a	-0.032542504
19	0x3c6a94a5	0.014317666
20	0x3d72affd	0.059249867
21	0xbc89d41f	-0.01682478
22	0x3c8cbe4d	0.017180586
23	0xbd5854fc	-0.052815422
24	0x3c646082	0.013939025
25	0x3d2c3b16	0.042048536
26	0xbd2c165c	-0.04201351
27	0x3c15263b	0.009103353
28	0xbd3e6c03	-0.046489727
29	0xbbae1f56	-0.005313794
30	0x3cf563f3	0.029954886
31	0x3d15727e	0.03648614
32	0xbcbfbfc5	-0.023406873
33	0x3cdf000d	0.027221704
34	0x3d1c6065	0.038177866
35	0x3da3310d	0.0796834
36	0x3dd24bf5	0.10268394
37	0x3dcb83e5	0.09937266
38	0x3decbb15	0.115591206
39	0x3db12c67	0.08651047
40	0x3cc48312	0.02398828
41	0xbbd39523	-0.0064569875
42	0xbc38af42	-0.0112722535
43	0xbcd1ee97	-0.025626464
44	0xbd618bc4	-0.05506493
45	0x3c0165ce	0.007897807
46	0xbd029518	-0.031880468
47	0xbd2f6198	-0.042817682
48	0xbd826dab	-0.06368574
49	0xba9e2926	-0.0012066707
50	0xbd6d7faf	-0.057983097
51	0xbc887933	-0.016659355
52	0xbd065b1b	-0.03280173
53	0xbdc14848	-0.09437615
54	0xbcddd776	-0.027080279
55	0x3e08c3bb	0.13355915
56	0x3daf7ce7	0.08568745
57	0x3db7eaed	0.089803554
58	0x3dec0e99	0.11526222
59	0x3dae8233	0.08520927
60	0xbc1c9edc	-0.009559359
61	0xbdfcf829	-0.1235202
62	0xbdb2c36e	-0.087286815
63	0xbdc7a701	-0.0974865
64	0xbd94bfa6	-0.072631165
65	0x3c8d0776	0.017215472
66	0xbd3c4f3e	-0.04597401
67	0x3d62f0e5	0.055405516
68	0xbcc17d94	-0.02361945
69	0x3cf4d149	0.029884951
70	0xbcf145ea	-0.029452283
71	0xbd4b60b0	-0.049652755
72	0xbcf6dc68	-0.030134395
73	0xbc1482ad	-0.009064359
74	0xbd1c3324	-0.03813471
75	0xbd41aa40	-0.047281504
76	0xbcdceb10	-0.026967555
77	0xbd00658e	-0.03134685
78	0xbc49af14	-0.012309808
79	0xbc4d5e14	-0.012534637
80	0xbc5e2b01	-0.013560058
81	0xbd2a0200	-0.041505814
82	0xbabd37e3	-0.0014436211
83	0xbc27c82b	-0.010240595
84	0x3aa4246d	0.0012523063
85	0xbd346585	-0.04404213
86	0xbcf89c7e	-0.030348059
87	0xbc8cdd33	-0.01719532
88	0xbd7450e5	-0.05964746
89	0xbcbfaf30	-0.023398966
90	0x3d3490a5	0.044083256
91	0x3bc90a66	0.006135273
92	0xbc8ccb4e	-0.017186787
93	0xb9b08d54	-0.00033674634
94	0x3bd66ab2	0.006543481
95	0xbd29ab25	-0.04142298
96	0x3b9154cf	0.004435159
97	0x3ca4647e	0.02006745
98	0x3d54b555	0.051930744
99	0xbd43cd84	-0.047803417
100	0x3d15aced	0.036541868
101	0x3c9600dc	0.018310957
102	0x3d0cbf19	0.034361932
103	0x3d33650d	0.04379754
104	0x3d41ff50	0.047362626
105	0xbc600533	-0.013673115
106	0x3c9f9305	0.019479284
107	0x3cc84005	0.02444459
108	0x3d49d3ec	0.04927437
109	0x3d5518bc	0.05202554
110	0xbc3d8196	-0.01156654
111	0xbd21e3b8	-0.03952381
112	0xbc9a9a97	-0.018872542
113	0xbd19cae9	-0.037547026
114	0x3b8b65e9	0.004254092
115	0x3d104c81	0.03522921
116	0xbd4e71d3	-0.05040152
117	0xbb46b005	-0.0030317318
118	0xbbaa7d9b	-0.0052029616
119	0xbd24a32c	-0.040194675
120	0xbd04280a	-0.032264747
121	0xbd4fef6c	-0.05076544
122	0xbd88727a	-0.0666246
123	0xbcca787a	-0.02471565
124	0xbcb9c916	-0.022678893
125	0x3d26070a	0.040534057
126	0x3c33576d	0.010946137
127	0x3d1ad6eb	0.037802618
128	0x3d0c8fc2	0.034316786
129	0x3d641353	0.05568249
130	0xbd2c17d9	-0.04201493
131	0x3c068a77	0.0082117235
132	0xba461030	-0.0007555513
133	0xbd245fc8	-0.040130407
134	0xbc2e4ee3	-0.010638925
135	0xb91d15ec	-0.00014980853
136	0x3ae3f7db	0.0017392592
137	0x3cc84b37	0.024449928
138	0xbd1fcb39	-0.039012168
139	0x3cd6dc06	0.026227962
140	0xbd93340c	-0.071876615
141	0xbd75d512	-0.060017653
142	0xbd9fe691	-0.07807649
143	0xbd4a7204	-0.04942514
144	0xbcd9650e	-0.026537444
145	0xbda8bb2f	-0.082388274
146	0xbdcfa170	-0.10138214
147	0xbdc44508	-0.09583479
148	0xbcff5889	-0.031170147
149	0xbdb6591c	-0.08903715
150	0xbdddcd72	-0.10830201
151	0xbd872846	-0.065994784
152	0xbd0ca568	-0.03433743
153	0xbddd7afa	-0.108144715
154	0xbcf95bcd	-0.030439282
155	0xbde8f127	-0.11374121
156	0xbdabbe38	-0.08385891
157	0xbd9a2847	-0.075272135
158	0xbd917130	-0.07101667
159	0xbd70851d	-0.058720697
160	0xbd6cf111	-0.057847086
161	0xbd301d36	-0.042996608
162	0xbd466727	-0.048438217
163	0xbd564e25	-0.05232062
164	0xbccf65fc	-0.025317185
165	0xbd5718cb	-0.05251388
166	0xbda695f8	-0.08134073
167	0xbc41fba2	-0.011839779
168	0xbd7277ca	-0.05919627
169	0xbc517f98	-0.012786768
170	0xbd424599	-0.047429655
171	0xb8447eca	-4.6848123e-05
172	0xbb695607	-0.0035604255
173	0xbc5504dc	-0.013001647
174	0xbc1bd842	-0.009512009
175	0x3c9c68bc	0.01909291
176	0xbcba96d7	-0.022777004
177	0xbcd52b43	-0.026021605
178	0x3ac14759	0.0014745995
179	0x3c46762d	0.012113136
180	0xbd3678e9	-0.044548903
181	0x39f685d6	0.00047020492
182	0xbcf208d4	-0.029545225
183	0xbd0cfdff	-0.034421917
184	0x3c2d4136	0.0105746295
185	0x3c99bcbd	0.018766755
186	0xbd3961ce	-0.04525929
187	0x3c69c295	0.014267583
188	0xbd44acd5	-0.048016388
189	0x3be83b2d	0.0070871324
190	0xbd2e2656	-0.04251703
191	0xbd180df8	-0.037122697
192	0xbbda36a6	-0.0066593466
193	0x3c8782b4	0.016541816
194	0x3c8bf11c	0.017082743
195	0xbcac5225	-0.021035263
196	0xbc9ffc9a	-0.01952963
197	0xbc805b1b	-0.015668442
198	0x3d00189f	0.03127348
199	0x3d56a559	0.05240378
200	0xbc1fd885	-0.009756212
201	0x3cb0de4d	0.021590376
202	0x3b75bbd9	0.0037496
203	0x3d4b478a	0.04962877
204	0xbd106fce	-0.035262875
205	0x3ca4609d	0.0200656
206	0xbceea0e5	-0.029129455
207	0x3c7a5fe3	0.01528165
208	0x3d34d0c1	0.044144396
209	0xbbf059ac	-0.0073349085
210	0x3d7e4a33	0.06208248
211	0x3d4757ee	0.04866784
212	0x3dfefa3a	0.12450071
213	0x3d9b5372	0.07584275
214	0x3dc18ac9	0.09450299
215	0x3ce54d60	0.027990997
216	0xbcaa9cd1	-0.020826729
217	0x3c5fc71e	0.013658313
218	0xbd1ab0eb	-0.03776638
219	0xbc20b154	-0.009807903
220	0xbca374fe	-0.019953247
221	0xbcec5442	-0.028848771
222	0xbd639a85	-0.055567283
223	0xbd672e0c	-0.056440398
224	0xbb2490e3	-0.0025110773
225	0xbd5687e6	-0.052375697
226	0xbcb45c19	-0.022016572
227	0xbdb6730e	-0.08908664
228	0xbdc276d3	-0.0949532
229	0xbcb6d27a	-0.02231716
230	0x3de26caf	0.11055886
231	0x3dc9abd1	0.098472245
232	0x3dae244f	0.08503019
233	0x3dc563e9	0.09638197
234	0x3d8d2629	0.06892044
235	0x3b81bdf9	0.003959414
236	0xbe00a857	-0.12564217
237	0xbd294ebd	-0.041334856
238	0xbc292e80	-0.010326028
239	0xbcc9aafc	-0.024617665
240	0x3c0ea87e	0.008707164
241	0xbc1126a5	-0.008859311
242	0x3c46b770	0.012128696
243	0xbdca5fa0	-0.0988152
244	0x3bb83167	0.0056211236
245	0x3d186c30	0.03721255
246	0x3ccf9007	0.025337232
247	0x3d8b4da1	0.06801916
248	0x3d20de85	0.03927471
249	0x3d75902f	0.059951957
250	0xbd211ad6	-0.039332233
251	0xbd5087ab	-0.050910633
252	0xbd321c18	-0.043483824
253	0xbca6c4e4	-0.020357557
254	0x3c2d6882	0.010583999
255	0x3c8e377c	0.017360441

fc1.1.bias f4 [3]
0	0x3c5c6be4	0.0134534575
1	0x3cfb8110	0.03070119
2	0x3b0c2810	0.0021386184
