datascience/cnn/model_ev/model_e_v3.pt (torch, 35759 bytes, 6 tensors)

conv1.0.weight f4 [32, 3, 3, 3]
00000000: 9fe2 7dbd dbe2 b73d f2df 333e 2487 5e3e
00000010: 57bb 573d a50b 783e fae5 383c 1df0 0a3e
00000020: caee 353e b70f 523d eeb8 2d3b 9ee4 9d3d
00000030: 05ab 8d3e c150 963d 6648 4e3e 9937 25bd
00000040: 4a2f ca3d a7b4 1b3e cccb 4fbd 70c7 8b3b
00000050: bf15 7c3e e4ca 153e 2700 123e 616b 48bb
00000060: b6b9 71bd 4712 163e 61b8 04be ed4e 303e
00000070: 78d9 363e c214 12bc c9d8 6cbd 5996 5fbd
00000080: 2ce5 38be c485 2ebe 0550 b43c 1ad4 e4bc
00000090: 93de 65be ff09 78be 1992 6dbe 9bd2 43be
000000a0: 340d 10bd f988 c5bd ef20 babd cd1a cdbd
000000b0: 65d6 f3bd 0dee 1e3e 9de8 26bc ec51 4cbe
000000c0: afa3 5e3e a28c 023e 8dc2 c63d 9347 c43d
000000d0: 2852 803d 5bbb 413d 25e0 213e 7899 4dbc
000000e0: 7ec5 5bbb acf5 45be 2a63 24be 8f52 0f3e
000000f0: b613 243e bc1d 163e 3b5f 9c3d 2942 60be
00000100: aa79 c4bc 44c5 15bd 247f 673d 844e bebd
00000110: 2cf1 c23d 1858 433e f85c 4a3e 3eeb 89bd
00000120: e0cc 2d3e 4575 103e 85d4 d1bd 92ad ea3d
00000130: b04a ffbd 42f7 56bd 04ed df3d 37f0 593e
00000140: 4cce fe3d ea8a 68be 08b7 ed3d ed6c 97ba
00000150: a896 5abd 9017 643e 5c6b fe3d a296 483e
00000160: 3cec 473e 934c 063d 3a72 0f3e 0895 5b3e
00000170: 8ca3 673e 5587 743e 8ad6 a43d 3345 073e
00000180: 2194 1b3e fa70 1b3e ff6c 2b3e dc3b 05be
00000190: 309d 2fbd a7e6 c0bd 7018 21be ab37 a93d
000001a0: 5a52 e83d eca2 40be a8f6 efbc 43a7 90bc
000001b0: 49a1 3dbe 4575 323e 2e83 1b3e aeb4 3b3e
000001c0: dca5 213d 105d 70bc 9532 0fbe 504f 883d
000001d0: e4d9 0b3d b03d 043e 00a0 323e 5598 673e
000001e0: c6e2 1e3e adf6 97bd ae60 cebd d84d 183e
000001f0: 4751 ab3d 5c0d 963d 267b 1f3e da11 4f3e
00000200: 628f 493e 6ccd 2d3e df1d 033e e47f 693e
00000210: 36c1 1fbc d442 803d 8e24 cd3d 3082 24bd
00000220: db6a e3bd 18cd afbd a9ac 6f3b adca c4bc
00000230: 908a 3dbe 1d18 c33c d05a 5f3d 6a30 933d
00000240: f95f 4cbc a548 d7bd 383d 25be 99a9 34be
00000250: 1382 56be 40c5 38be 3cc4 453e 9165 1d3e
00000260: 56ec 183e 1d79 82bd 0aac 383e e478 f5bd
00000270: 25cf abbd cc26 4dbe 5b12 5ebe 3f70 e43d
00000280: 42fa 8d3e 3789 a63d ef9f b6bd a8ed 03bb
00000290: 3f55 47be 65c1 013e d669 ac3d 26c0 dd3d
000002a0: bce8 7f3e 1740 8b3d a05b 633e ae5b 8f3c
000002b0: 144c b43d f333 23be 4ecd ba3d 7384 083e
000002c0: 0c74 ad3b 5f88 733e 2673 40be 9092 563e
000002d0: 2c41 3c3d bbee b43d 7096 023b 5f63 2c3e
000002e0: 99fc c7bd 520c 4c3e 7e53 123e 79b3 fbbc
000002f0: 95a7 ea3b fe0b 543e 6abe 463e 758a 9a3d
00000300: c94d 45bd 50d9 ef3d 3e3c 343e 614f 053e
00000310: 68c3 b93d 8cdc fbbc 65a2 2f3e e70b 243e
00000320: 96f9 2b3e 5a53 8e3d 82c1 9a3d 51b1 1f3e
00000330: b643 a6bd ecf0 2a3d 3f9f 79bd c1ba 163e
00000340: ac36 d63b e7a7 043d 7999 dfbb c32e 133e
00000350: b382 103e a892 9f3d 485d 173d dbb3 823c
00000360: eb8c 333e 4101 6b3e 8716 9b3e cceb 24bd
00000370: 0aff a23d f16e edbd 9606 7d3d 7435 2bbe
00000380: 9516 4bbd 8580 82bc 2ba3 c23d ef10 b63d
00000390: a9a5 ec3d bb38 b73d 71f5 873d 4e9d 9cbe
000003a0: abf1 26bd d130 a0be b991 8d3e 4cfa 5a3e
000003b0: 794a 863d f67d c43d bc9f 5b3d d61a 053e
000003c0: 8727 18be 36e0 ba3d ec0b 75be b90a 4dbe
000003d0: 76b2 c73d 91f2 ff3d 9f2f 663e e831 f83d
000003e0: 58de 9d3d 5409 443e 62a1 c0bc 3793 663e
000003f0: 677c d7bd 6b04 0a3e bffc a0bd 9240 e6bd
-0.0619837 0.08978816 0.17565897 0.2173124 0.052668896 0.24223192 0.011285299 0.13568158
0.17766872 0.051284518 0.0026507932 0.07709621 0.2766954 0.07339621 0.20144805 -0.040336225
0.09872301 0.15205632 -0.050731465 0.004265718 0.2461767 0.14628178 0.1425787 -0.003058158
-0.059015 0.1465541 -0.1296096 0.17217608 0.17856395 -0.008916082 -0.05782393 -0.054586742
-0.18056172 -0.17043215 0.022010813 -0.02793317 -0.22448187 -0.24222563 -0.23200263 -0.19123308
-0.03516884 -0.09645266 -0.09088313 -0.100148775 -0.11906127 0.15520497 -0.010187295 -0.19953126
0.21742128 0.1274896 0.09705076 0.09583964 0.0626567 0.047297817 0.1580816 -0.012548797
-0.0033534463 -0.19331998 -0.16053453 0.13996337 0.16023144 0.1465978 0.07635351 -0.21900238
-0.023983795 -0.03656508 0.056517735 -0.092923194 0.09518656 0.19076574 0.19762027 -0.06734322
0.16972685 0.14107235 -0.10245613 0.11458887 -0.124654174 -0.052481897 0.10933879 0.21283041
0.12441692 -0.22709242 0.11607176 -0.0011552848 -0.053366333 0.22274613 0.12422821 0.19588712
0.1952371 0.03278787 0.14008418 0.2144357 0.22620982 0.2387975 0.080487326 0.13209991
0.15193225 0.15179816 0.16740797 -0.13011116 -0.042874515 -0.094189934 -0.15731978 0.08262571
0.11343832 -0.1881215 -0.02929242 -0.017657882 -0.18518557 0.17427547 0.1518676 0.18330643
0.039464816 -0.014670625 -0.1398414 0.06655753 0.034143344 0.12914157 0.17443848 0.22616704
0.15516195 -0.074200965 -0.10077034 0.14873445 0.08365112 0.07326767 0.15574321 0.20221654
0.19683602 0.16972893 0.12804364 0.22802693 -0.009750655 0.062627465 0.10016738 -0.04016322
-0.111043654 -0.085840404 0.003657142 -0.024022425 -0.18509889 0.023815209 0.054529965 0.071869686
-0.012474054 -0.10511903 -0.16136634 -0.17642821 -0.20948057 -0.18043995 0.19313139 0.15370776
0.14933905 -0.06370757 0.18034378 -0.11985949 -0.08389119 -0.20034331 -0.2168669 0.11154222
0.27729994 0.081316404 -0.08917224 -0.0020130668 -0.19466113 0.1267143 0.08418624 0.10827665
0.24991125 0.067993335 0.22202921 0.017499771 0.08803573 -0.15937786 0.0912119 0.13331775
0.005293375 0.2378249 -0.18793926 0.20954347 0.04596059 0.08834597 0.0019926094 0.16834782
-0.09764976 0.19926575 0.14289662 -0.030725228 0.0071610906 0.207077 0.19408575 0.0754594
-0.048169885 0.11711371 0.17601106 0.13018562 0.09070474 -0.030744813 0.17151792 0.16020165
0.16794428 0.06949492 0.0755644 0.15594985 -0.081183836 0.041733667 -0.060942885 0.14719678
0.006537279 0.032386687 -0.0068237153 0.14373307 0.14112358 0.07791644 0.036954194 0.015954902
0.17534225 0.22949697 0.30290624 -0.040263936 0.07958801 -0.11593426 0.06177386 -0.1671961
-0.049582083 -0.015930424 0.09503778 0.088899486 0.11555035 0.08946367 0.06638611 -0.30588764
-0.040757816 -0.31287244 0.2765024 0.21384543 0.06557173 0.09594338 0.05361913 0.12998518
-0.14858828 0.09124796 -0.23930329 -0.20023622 0.097508356 0.12497438 0.22479104 0.12118894
0.07708424 0.19144183 -0.023514453 0.22517096 -0.10521775 0.13478248 -0.078607075 -0.112427846

conv1.0.bias f4 [32]
00000000: 0767 09bf d079 b73e f47a ebbe 4cfe bdbe
00000010: 2dc1 83be 8774 c43e c9e7 0fbf cd61 2cbf
00000020: d4e4 07bf 475c 21bf 1833 09bf 32aa 9d3e
00000030: 5b92 66bd 0523 0fbe 10f9 05bf 0142 dfbe
00000040: 1ffa b03d 1c96 803e e608 be3d 16b5 af3e
00000050: bfd4 f4be c29d e23e 93ee 813e 93f5 88bc
00000060: f687 88bd e36a 08bf 643b 90ba e4f9 7e3e
00000070: 66ca c1be 0546 e13b 4065 15bf ddf0 f4be
-0.5367283 0.35835123 -0.45992243 -0.37108076 -0.2573332 0.38370153 -0.5621305 -0.6733673
-0.5308354 -0.6303143 -0.5359359 0.3079391 -0.05629192 -0.13978203 -0.52333164 -0.43605044
0.08641457 0.25114524 0.09279041 0.34317845 -0.47818562 0.44260985 0.2537733 -0.016718661
-0.066665575 -0.53288096 -0.0011004028 0.24900013 -0.3784973 0.006874802 -0.5835762 -0.47840014

conv2.0.weight f4 [16, 32, 3, 3]
00000000: f9ef 22be 4faa 68bd 0900 c23b 0b5d e8bd
00000010: b376 82bd 846f 353b 968a 71bd b6aa 5cbd
00000020: dd96 eb3d b272 aa3d fde2 b93d a143 f63d
00000030: 626a 323e a81f 763d 1775 113e d9bf e03d
00000040: b0aa 9d3d 2723 923d 8e8f 2ebe 049c afbd
00000050: cae8 aebd 7e48 dcbd 2ad8 1ebe 764b e3bd
00000060: 7210 df3c 787e bf3d 613d ca3c a529 24be
00000070: bfbf 00be 16a1 40bc ec31 16be fba3 ffbd
00000080: 01c8 a139 b8d2 e739 b2dc a4bd 19d0 cc3d
00000090: a2ae dbbd 2478 30bd 66cc 723d 2b71 cebd
000000a0: 0e4c 34bd 1349 4c3d 41f8 34bc dcac ff3a
000000b0: 90fd 5d3d 51cf 6b3e c481 953d 67ea 2b3e
000000c0: a7f6 123e 1170 d23b 559c 323d cd56 ce3e
000000d0: ca26 d03e c6d7 bc3e 032d c1bd 215c 63bc
000000e0: 9886 bc3b 8011 f7bd 520c 9cbd bcb0 2d3d
000000f0: 6b61 233d c8f4 8fbc 435d c13d 7577 a5bd
00000100: fcfe 95bd daba 1f3d 934f a4bd a926 76bd
00000110: 9b16 903c 179a 423d c5eb ea3c 2d9e 9a3d
00000120: 2e8d 3abe 2a4c 03be e3c5 12bd ab1a 3abe
00000130: ee43 d5bd c556 26bd a5b6 f3bc c13b 253d
00000140: 8af2 d33d 9824 b9bd 71d6 b9bd d9ae 223d
00000150: b510 2ebe b9fe 3cbd 8b14 3e3b 7ef3 253d
00000160: c709 37bd 3a0c 793c 98db d3bd de8a b0bd
00000170: 5cc9 8dbc dc30 97bd 18cd 4fbd f81b 733d
00000180: 6d98 663d 9524 b53c daab 213e ccf8 e53d
00000190: e1b7 52bd d490 093e 8438 893e df4d c53d
000001a0: 4107 e33d afa3 663e fce7 0b3e 06da 633e
000001b0: a66e d3bd 541e 25be e771 e8bc bebf 64bd
000001c0: f254 12be 56d1 93bd 8a6b 903e ff73 273e
000001d0: 128f 693e 453d 90bd fb39 a8bc 973a e83c
000001e0: 5f71 9bbd c015 a3bc 133f 0a3d f6a4 5e3c
000001f0: 9490 413d 0fef b03d d22f 39be a6ab c8bd
00000200: 774b 833c c827 24be 532c 8fbd c029 73bd
00000210: 9e51 14bb 39e4 9ebd b2d9 d53d 5459 febd
00000220: 0d82 f7bd 9df5 45bc 88bf 34be bdc3 14be
00000230: 1acf cabc 63ee e0bc 29c8 7d3d 0634 0a3e
00000240: c215 c1bc 9780 dabd bfb1 8a3c 661b 5b3d
00000250: 7e82 b03a a843 743b beb9 573d 76a2 7d3c
00000260: 4a60 8c3d 2baa 133d 76d3 10be dba7 3e3e
00000270: 6fe2 6a3e f76f 3d3d d139 3c3e 7f92 633e
00000280: 63b4 7b3d fa47 253e 7113 dd3d dc60 8fbc
00000290: 1ebc fc3d 802f 0d3c 94d4 52bd 3681 cabd
000002a0: 9d45 d13e c3da 963e 462e af3e d12b 3c3e
000002b0: 7607 7b3d 575f 843e 8817 2a3e 9ccb f23c
000002c0: f7c7 223d 0725 c23e 38ed 083e c16b 8e3e
000002d0: e9f0 41bd 17e8 10bd 1cb7 1eba bcb6 bebd
000002e0: ed35 99bd 4d05 953d c57d 573c 1f3c d5bc
000002f0: 2d6e e03d 3ed0 363e 5bd0 ba3d 997d 573e
00000300: a296 8f3e 2f35 083e 5897 523e f356 8a3d
00000310: 6341 1dbd 7821 5f3d bfb0 213e 660c 6abd
00000320: 35b1 84bb 226e 433e 0ee2 153d 0d13 1a3e
00000330: b706 c53d 8f27 93bc bf04 0e3e 6591 d3bd
00000340: 839f 2fbd 0e78 4ebd 201d 7cbd 00c7 d1bd
00000350: 9b1f 02be 99ff 833c 4f2c 95bd f34f 963b
00000360: 7963 89bd 02bc 833c 3465 80bc de5b babc
00000370: 18a2 e7bd 7410 83bc eb02 bd3c 025d 853d
00000380: ed2f d3ba 8994 afbd 0c25 adbd 2d25 c23d
00000390: ab06 fcbd 6bd2 6bbd 8283 413d 8145 8c3c
000003a0: 8e80 42bd 7cd1 643d 2a1d 5f3c 8624 11bd
000003b0: e406 0b3d 7ee6 213d 99f6 503d 8ecc fe3c
000003c0: 1973 71bc 5a95 5ebd c49e 133d 7c4b 273e
000003d0: 4870 9a3c e396 703d c706 553e 485f f83d
000003e0: 3614 e43d 4c01 613e 0f17 4a3d 8216 c63d
000003f0: e4c3 4fbe 1742 6cbe 1c74 9fbd da57 3ebe
-0.15911855 -0.056803044 0.0059204143 -0.113458715 -0.06370296 0.0027684877 -0.058970056 -0.05387374
0.11503384 0.08322658 0.09076498 0.12024618 0.17423394 0.060088784 0.14204822 0.10974092
0.07698572 0.07135611 -0.1704695 -0.085746795 -0.08540495 -0.10756014 -0.15512148 -0.110983774
0.027229521 0.09350294 0.02468747 -0.16031511 -0.12573145 -0.011757156 -0.14667481 -0.12482449
0.00030857328 0.0004421675 -0.08049907 0.10000629 -0.10726668 -0.043083325 0.05927696 -0.10080179
-0.044017844 0.049874377 -0.0110455165 0.0019506472 0.054196894 0.23028304 0.073001415 0.16788636
0.14351903 0.0064220508 0.04360612 0.403006 0.40654594 0.36883372 -0.094324134 -0.013876946
0.0057533495 -0.12063885 -0.076195374 0.042404875 0.039887827 -0.017572775 0.094416164 -0.08079425
-0.07324025 0.038996555 -0.0802299 -0.060095463 0.017588904 0.047510233 0.028676877 0.07549701
-0.18217918 -0.12822023 -0.03583325 -0.18174236 -0.10413347 -0.040610094 -0.029750178 0.04034019
0.10348995 -0.09040183 -0.090741046 0.03971753 -0.1699856 -0.04614136 0.0029003944 0.040515415
-0.04468706 0.015200669 -0.103446186 -0.08620237 -0.01730793 -0.07382366 -0.050732702 0.059352845
0.05629771 0.02211217 0.15788212 0.11229095 -0.05144489 0.13434154 0.2680093 0.09633993
0.11085368 0.22523378 0.13662714 0.22251138 -0.10323839 -0.1612485 -0.028374625 -0.055846922
-0.14290217 -0.07217662 0.28207046 0.16352843 0.22808483 -0.07042936 -0.02053546 0.02834825
-0.07589983 -0.019907832 0.03375156 0.013589134 0.04725702 0.08639347 -0.18084648 -0.09798364
0.016027195 -0.160308 -0.06990876 -0.059365988 -0.0022631655 -0.07758374 0.10441913 -0.12419382
-0.12085352 -0.012082485 -0.17651188 -0.14527793 -0.024756957 -0.027457422 0.061958466 0.13496408
-0.023569945 -0.10669058 0.016930459 0.053492926 0.0013466624 0.0037271772 0.052667372 0.015480628
0.06854303 0.036050957 -0.14143166 0.1861872 0.2293794 0.046249356 0.1838143 0.22223853
0.061451327 0.16140738 0.10794724 -0.01750224 0.12340568 0.008617282 -0.05147226 -0.09887926
0.40873423 0.29463777 0.3421499 0.1837609 0.061286412 0.2585399 0.16610539 0.029638104
0.039741483 0.37918875 0.13371742 0.27816585 -0.04734889 -0.035377588 -0.0006054507 -0.093121976
-0.07480989 0.07276402 0.013152544 -0.026029645 0.10958514 0.17852876 0.09121772 0.21044005
0.2804461 0.13301538 0.20565546 0.067548655 -0.038392436 0.054475278 0.1579008 -0.05714073
-0.004049445 0.19084981 0.036592536 0.1504633 0.096204214 -0.017963199 0.13868998 -0.10330466
-0.04287673 -0.05040746 -0.061551213 -0.10243034 -0.12707369 0.01611309 -0.07283842 0.0045871674
-0.06708426 0.01608086 -0.015673257 -0.022748884 -0.11310214 -0.015999056 0.02307268 0.065118805
-0.0016112305 -0.08573253 -0.08454332 0.09479747 -0.12305959 -0.057573717 0.047244556 0.017122986
-0.04748588 0.055863842 0.013617793 -0.035435222 0.03394212 0.039526455 0.051016424 0.031103399
-0.014736914 -0.05434165 0.036040083 0.16337389 0.018852368 0.058737647 0.20803367 0.121275485
0.111366674 0.21973151 0.049338397 0.09672262 -0.2028957 -0.23072086 -0.07785818 -0.185882

conv2.0.bias f4 [16]
00000000: be3b 283e 15f9 873e de2c 4ebc a210 bbbc
00000010: 2614 7f3c f74f d3bd f398 6dbe 6754 043d
00000020: f9d9 96bd 2aef 32be 6733 86bd 7221 2bbe
00000030: 991c 48be 6d10 7dbe f7d1 61be 0d67 81be
0.1642904 0.26557222 -0.012583939 -0.02283508 0.015568769 -0.103179865 -0.23202877 0.032307055
-0.07365794 -0.17474046 -0.06552773 -0.16711977 -0.19542159 -0.24713297 -0.22052751 -0.25273934

fc1.1.weight f4 [5, 560]
00000000: d833 5c3d f374 973d 344c d93d 1646 773d
00000010: 5a23 d93d 7c6e 643c 3d58 81bb 32dc d0bc
00000020: 15b0 72bd 9e31 b53d 2e4a 00bc e78c d73c
00000030: 9943 cabc a4c9 44bc 1ce0 b33c 1bda d93c
00000040: 91fc c3bc bc6b 0f39 299f 073d c299 943d
00000050: d4f0 663d f775 0bbe 7588 06be e87e 10be
00000060: e76f 99bd 600e 423d c2c4 16bd 7f86 16be
00000070: 7e26 27be 9a99 b53e f1c6 053d d274 9b3d
00000080: ee05 a63c d9ff c0bd b67d 713e 4e7f c63d
00000090: 59c3 0b3e 6f3a 593e 83fb b83d 0d39 863d
000000a0: bc8c 803c 503f 12bd 5568 7bbc 69ce c9bd
000000b0: ee75 573c c849 093c 3133 6fbd 416a 0cbd
000000c0: 1e90 3ebc d043 3d3c f759 793d 5144 48bc
000000d0: 00fa 153c db01 b73b 071b d23c 6366 413d
000000e0: 3c57 f93b 82ce e0bc 82b6 8fbd f700 ba3c
000000f0: a391 123d eaa5 96bd 6ebe 17be c545 87be
00000100: 7910 a93e 4a65 f93c e954 bb3d 277d 2d3d
00000110: cc7b 713c 58ac fb3d 86cc 533d 9229 923d
00000120: 9d70 6b3d d2af 3c3d 616d 753d 6a20 8a3d
00000130: 3f96 3abc 34d9 2ebd 7ebc 44bc bc0e 39bd
00000140: 13f5 153d 59e3 5d3c 1d4a 76bc de36 92bd
00000150: 84e2 9fbd 3e97 853b 1286 a8bd aa84 98bd
00000160: 4767 f3bd de55 1cbd ba8a 7bbd 725e 86bd
00000170: 3217 46bd 9a0c 933c 9671 c73c 7f50 38bc
00000180: 8779 14be 88c1 16be b074 5fbe 7556 ff3c
00000190: dc89 8cbd 94c9 78bd a4a2 f2bc f83d 71be
000001a0: 91cc c5bb 91c7 7c3c cbdf e7ba a26e 63bc
000001b0: a64c cc3c 7f02 2abd 4577 7cbc 2b45 e2bc
000001c0: a706 4dba a339 29bd f390 1e3d f171 0a3c
000001d0: 9058 d53b d9df f9bc 8f38 593b 818c 643c
000001e0: d70d 263d 9929 ae3c 57c3 d9bc 2091 843b
000001f0: 3754 44bd 7129 52bc b3ec 51bc 0a36 00bd
00000200: e226 a6bc 7c81 b8bb 68d8 b33c 1e2f 133d
00000210: 12cd 25bd 47fa 1fbd e9b2 1ebd 24e5 de3c
00000220: 8218 00bd b242 30bc 95b8 1dbd 5638 1d3d
00000230: 176c 00bc 17e5 503c c95a 0fbd 30c0 b1bc
00000240: 56bf 3bbd 0609 1fbc 19f9 f6bc 4e37 00bd
00000250: d7a8 18bd 04c5 c3bb 5e63 7b3c ed6a 413c
00000260: 6ba6 1ebd dd6a bd3b 6a6c c83c 5976 ffbc
00000270: 8e18 40bc 715f cabc 07c8 14bd 6dc8 7dbc
00000280: c9ab debc 12ce b63c 138b eebc 376f 81bc
00000290: 7255 5a3c 6b66 7bbc dba7 bebc 247d 143d
000002a0: 807b 1b3b a706 d6bc 7233 e53c 8f2d 1d3c
000002b0: 98c8 463c 417d d03c e161 b5bc cb7e 35be
000002c0: 9b8c 263e f653 343c 64eb eebd a9ff c2bd
000002d0: 685b eabd fc44 eb3c 7866 33bd 7425 f7bc
000002e0: bed5 6cbd 4693 dabc c428 28bd e271 173c
000002f0: 61ad d4bd f8e1 59bc c8a2 bcbd 7f4b 84bd
00000300: 2cde 61bd 98e3 cdbc d5df a0bd c738 523d
00000310: d434 be3d 56fd 263e 14d7 123e feaf 2f3e
00000320: 332f f6bd a5df b5bd e650 83bd 7bcf fdbd
00000330: c0e2 c2bd cc26 44be 9b70 4abe 1087 6cbe
00000340: b3f3 82be 47cd 23be b912 883d 54f4 2b3d
00000350: 1d7a c2bc 16a6 0abd 6fb4 e7bc ff4a ba3c
00000360: 0fbb 69bd c0a7 7cbd 0df1 63bd 18de ccbd
00000370: 66de f03d 0702 b0bd 33c4 54bd 20a9 36bb
00000380: 9fd8 e6bd 346a fc3c 4b24 19bd 47cd 82bc
00000390: bf5e 27bd 09f1 cabd 71ea fb3d d200 813d
000003a0: 9057 9e3d e9f5 fb3c 4304 913d 0f9c 1f3c
000003b0: e796 cbbc 7105 983c 5f47 003d c2c6 c83c
000003c0: 7b9f 9f3b a2f1 3ebd dc49 abbc 701f cabc
000003d0: 7931 15bc 8682 593c 8837 3dbd d510 1bbd
000003e0: 99e2 5cbd dc46 8abc ca16 07bd 7f35 eabc
000003f0: f55b 95bc d890 023d 0b09 bf39 d1ae ebbc
0.05376038 0.07395353 0.10610238 0.060369574 0.10602446 0.013942357 -0.0039472864 -0.025495622
-0.059249956 0.08847354 -0.007830186 0.026312305 -0.024690436 -0.0120109655 0.02195745 0.026593259
-0.023924144 0.00013677677 0.03311077 0.072558895 0.056382015 -0.13619219 -0.13137992 -0.14110911
-0.07492047 0.04737699 -0.036808737 -0.14699744 -0.16323277 0.3546875 0.03266043 0.07590641
0.0202665 -0.09423799 0.23583111 0.0969225 0.13648738 0.21213697 0.09032347 0.0655385
0.015692107 -0.03570491 -0.015344699 -0.09853823 0.013150675 0.008379407 -0.05839843 -0.03428102
-0.01163104 0.011551812 0.060876813 -0.012223319 0.009153843 0.005584938 0.025647653 0.047216784
0.007609276 -0.02744222 -0.070172325 0.022705538 0.03578342 -0.07355864 -0.14818737 -0.26420417
0.3302038 0.030443806 0.09147055 0.042355683 0.014738988 0.12288731 0.05170872 0.07136835
0.057480443 0.046066113 0.059918765 0.06744464 -0.0113883605 -0.04268761 -0.012007831 -0.045180067
0.036610674 0.013542973 -0.015032318 -0.07139371 -0.07806876 0.0040768674 -0.08228697 -0.07447179
-0.11884933 -0.038167827 -0.061411597 -0.06560983 -0.048361965 0.017950345 0.024346154 -0.0112496605
-0.14499484 -0.14722264 -0.21821856 0.031169156 -0.06862232 -0.060739115 -0.029618569 -0.23558795
-0.006036349 0.01542844 -0.0017690597 -0.013881357 0.024938893 -0.041506287 -0.015409295 -0.027620872
-0.00078211207 -0.041314732 0.038712453 0.008450017 0.0065108016 -0.030502247 0.0033145284 0.013949514
0.040540542 0.02126007 -0.026582403 0.0040456206 -0.047931876 -0.012827263 -0.012812781 -0.031301536
-0.020282213 -0.00563067 0.021953776 0.035933606 -0.040478773 -0.039057042 -0.03874484 0.027208872
-0.031273372 -0.010758089 -0.03850611 0.038383804 -0.007838271 0.012749932 -0.03499869 -0.021698087
-0.04583677 -0.009706741 -0.030148076 -0.031302743 -0.037270393 -0.005974414 0.015343515 0.011805278
-0.038732927 0.0057805614 0.024465758 -0.031184362 -0.011724604 -0.024703713 -0.036323573 -0.01548968
-0.027181523 0.022315059 -0.02911905 -0.015800102 0.013326036 -0.015344243 -0.0232734 0.036252156
0.0023724735 -0.026126219 0.027978633 0.009593382 0.012132786 0.02545035 -0.022141399 -0.17724149
0.16264574 0.011006346 -0.11665991 -0.095214196 -0.114432156 0.028719418 -0.043798894 -0.030169226
-0.057821028 -0.026681554 -0.041054502 0.00924346 -0.10384632 -0.013298504 -0.092107356 -0.06459712
-0.05514352 -0.02513294 -0.078551926 0.05132368 0.0928742 0.16307577 0.14339858 0.1715698
-0.12020721 -0.088805474 -0.064119145 -0.123930894 -0.095159054 -0.19155425 -0.19769518 -0.23098397
-0.25576553 -0.15996276 0.06644196 0.041981056 -0.023739869 -0.0338498 -0.02828428 0.022740839
-0.05706316 -0.061683416 -0.055649806 -0.100032985 0.11761169 -0.08594137 -0.051944923 -0.0027871802
-0.11271786 0.03081236 -0.037388127 -0.015967024 -0.04086184 -0.09909255 0.123005755 0.062989846
0.07731545 0.030756908 0.07080891 0.009741797 -0.02485223 0.018557282 0.031318065 0.024508838
0.0048713065 -0.046617158 -0.020909242 -0.024673194 -0.0091060335 0.013275748 -0.046195537 -0.03785785
-0.053927038 -0.016879492 -0.032980718 -0.028589962 -0.018232325 0.031876415 0.00036437096 -0.028769882

fc1.1.bias f4 [5]
00000000: c266 bc3d e003 cdbd fdbf 853c f118 6bbd
00000010: 4aa2 c63d
0.09199287 -0.10010505 0.016326899 -0.057396833 0.09698923
