datascience/cnn/model_ev/model_e_v1.pt (torch, 35695 bytes, 6 tensors)

conv1.0.weight f4 [32, 3, 3, 3]
000000 4e 42 01 3d a4 7f cd bd 32 9c b2 3d d8 2f 82 be
       0.031557374 -0.10034111 0.08721198 -0.25427127
000010 bc b0 4c be 7c 91 df bd ed eb 55 3e 5d 8c 60 3d
       -0.19989294 -0.10916421 0.2089078 0.05482136
000020 63 8f 71 3e 4b 2d 0b 3c ce 0e 1d 3e e4 0a d2 bd
       0.23589854 0.008494685 0.15337679 -0.102559835
000030 02 e8 89 bd e4 20 c7 bd f0 d1 46 be ee a9 38 3e
       -0.06733705 -0.0972307 -0.19416022 0.18033573
000040 0e 33 d5 bc 4d 03 de bd fd 94 78 3d 32 8a 2d be
       -0.026025321 -0.10840473 0.06068896 -0.16947249
000050 e8 e8 f9 3c f2 3c 25 3c 6c 46 63 be 60 d1 b3 be
       0.030506566 0.010085331 -0.22194833 -0.35120678
000060 4f 00 5a bd f2 04 17 3e ef 45 32 3e 53 c6 ea 3d
       -0.05322295 0.1474798 0.1740949 0.114636086
000070 63 56 1a 3e fc 3d 1d 3e 0e eb 13 3d f4 64 02 be
       0.15072016 0.15355676 0.036112837 -0.12733823
000080 73 bf 2b be 52 42 16 3e 1b 94 57 3e bb 46 79 be
       -0.16772251 0.14673737 0.21052592 -0.24343388
000090 d9 81 36 3e d2 cf da 3d 50 3c 8c 3d 87 35 ae bd
       0.1782297 0.1068417 0.06847441 -0.08506303
0000a0 84 0b 21 be 16 89 47 3e ad c1 4a 3e 26 3e 59 3e
       -0.15727049 0.19485888 0.19800444 0.21215114
0000b0 b5 f0 6a be b6 d4 0d 3e b9 fe 43 3e 20 a1 0c be
       -0.22943385 0.13850674 0.19140138 -0.1373334
0000c0 4d 21 46 be e5 8c c6 bc 4f ee 6a bd 86 ae 01 be
       -0.1934864 -0.024237106 -0.057356175 -0.12664232
0000d0 e3 6b 1a be e6 1b 72 3d fc 6a 03 be 8b f4 0e be
       -0.15080218 0.059108637 -0.1283378 -0.13960473
0000e0 bd 89 15 be e5 b3 a1 bb 70 29 4b be 94 ba 2e be
       -0.14603324 -0.004934775 -0.19840026 -0.17063361
0000f0 25 eb fe 3d 17 c2 59 3e ee 9e 2f 3e 73 50 e7 3d
       0.12447194 0.21265446 0.1715047 0.11294641
000100 a8 cc 7d 3d e8 4c e7 bb 34 6c 07 be 7f ef ac bc
       0.061962754 -0.0070587285 -0.1322487 -0.021110294
000110 ce 31 2c 3e 6b 07 6d 3e 4f 6e 9a 3d 67 5c 29 3d
       0.16815874 0.23147361 0.07540571 0.041347887
000120 de d5 f5 bd 2f 66 0f 3d c7 f1 54 be b0 67 58 3e
       -0.120036826 0.03500956 -0.20795356 0.21133304
000130 2a 06 a0 bd 8c 93 e9 3d 28 71 62 3e 19 d4 5b 3e
       -0.07813676 0.114050955 0.22113478 0.21467628
000140 f5 31 8d 3c d3 63 cc 3a 6c fd 46 3d d6 5a 33 be
       0.017235735 0.0015593715 0.048581526 -0.1751512
000150 24 15 e8 3d ae 66 3c 3d a5 5c 99 bc be b9 32 bd
       0.11332157 0.04599636 -0.018720934 -0.04363417
000160 e0 4e 37 be 07 55 4b 3c 62 aa f5 bd 71 3d d6 3d
       -0.17901182 0.012410409 -0.119953886 0.10460938
000170 f0 d1 f8 bd 06 b5 9f 3d 3d 8c fe 3d ee 82 0d 3e
       -0.121494174 0.07798199 0.12429092 0.13819477
000180 99 94 ab bc 9e cc 7a be ba 50 fd 3d 48 35 d7 bd
       -0.02094488 -0.24492118 0.12368913 -0.105082095
000190 71 eb 4a be 10 12 4b 3e 41 13 dd bd f1 a8 3b 3e
       -0.19816376 0.19831109 -0.10794688 0.18326165
0001a0 7b 55 a5 3c e0 d9 ef 3c 25 fa 39 3e e8 dd 0c 3e
       0.020182362 0.029278696 0.18161829 0.13756526
0001b0 c2 9a 61 be 75 bd fd bd cc f8 1d be cc ef 17 bc
       -0.22031692 -0.12389652 -0.1542694 -0.009273481
0001c0 d6 d4 5f 3d a3 05 7b be a2 f8 24 3e 6f 98 e8 bc
       0.054646336 -0.24513869 0.16110471 -0.028392999
0001d0 f7 fd 63 3e 08 d4 8a 3b d8 32 75 be ff 96 07 be
       0.22264849 0.004236702 -0.23945177 -0.13241194
0001e0 04 be 50 be 44 11 d8 bd d4 cc 93 be 4e 9e 6e 3e
       -0.20384985 -0.10550168 -0.2886721 0.23302576
0001f0 61 7c 95 3d 95 e4 4e 3d 81 f3 60 be dc 2d 36 3e
       0.07299114 0.05051096 -0.2196789 0.17790931
000200 d3 d1 c3 3d d7 30 23 3e 70 68 2f 3d ed 89 91 bc
       0.09561505 0.159366 0.04282421 -0.017765963
000210 97 5d c2 3d 96 c3 6d 3e 68 a6 92 3e 6f bc 6d 3e
       0.09490507 0.23219141 0.28642583 0.23216413
000220 3c 88 8d 3d 5b d1 0c be 2f 80 81 3e 6e 62 cb bd
       0.0691075 -0.13751738 0.2529311 -0.09930883
000230 dc 96 59 be a9 eb 8b 3e fc d5 13 be ef 37 82 bd
       -0.21248955 0.27328232 -0.14437097 -0.06358325
000240 16 64 e6 3d 72 4f 42 3e 70 88 63 3c ee 2f 27 bd
       0.11249559 0.18975618 0.01388751 -0.040817194
000250 82 ff 61 be 5a 8c 4a be 45 59 23 be fc f7 61 3e
       -0.22070125 -0.19780102 -0.15952022 0.22067255
000260 84 6a 51 bd e7 0d 29 3d c4 93 0d 3e 14 ad fb bd
       -0.05112697 0.041273024 0.138259 -0.122888714
000270 4d e2 8e 3e 2e 55 c9 bd 98 75 8f be f7 21 90 3e
       0.2790703 -0.098307 -0.28019404 0.28150913
000280 7c ef 69 3d 5c 53 af 3d b2 d4 55 3e ff f2 a9 3d
       0.057113156 0.085608214 0.20881918 0.08298301
000290 7f 9a 80 3e 9b 6c 67 3e 28 b8 51 3e 53 d4 a0 bd
       0.2511787 0.22600023 0.20480406 -0.07852998
0002a0 f1 1f 12 be ad f2 f0 bd 82 15 6b 3d 12 95 4c 3d
       -0.14269997 -0.11765037 0.05739356 0.049946852
0002b0 72 36 19 be 83 0d 00 3d 9f d7 f8 bc 13 56 d8 3d
       -0.14962175 0.031262886 -0.030376254 0.10563292
0002c0 e9 a8 5e 3e 62 ca 33 3e fb bc a9 be 10 17 71 3e
       0.21744122 0.17557672 -0.33151993 0.23543954
0002d0 43 25 81 bd c0 4a 16 3c 93 2b c6 3c 9f 2a e1 3d
       -0.06305935 0.009173095 0.0241907 0.109944575
0002e0 18 fb bf bc e2 20 56 be 08 2f 27 be 37 06 ef bc
       -0.02343516 -0.20910981 -0.16326535 -0.029177768
0002f0 b3 21 5a 3e 08 a5 43 bd fd db 11 3e b1 f9 98 3d
       0.21301918 -0.047764808 0.14244075 0.074695
000300 51 c9 c7 3d ad ce 29 be cc d4 38 3e 76 c0 51 3e
       0.09755195 -0.16582747 0.18049926 0.20483574
000310 9e 81 3b 3e 09 56 3d 3e 8c 6c 8a 3e ae e2 79 3e
       0.18311164 0.18489851 0.2703594 0.24402878
000320 3c a1 72 3e 84 04 d3 3d b6 54 75 3e 3e dd 79 3e
       0.23694319 0.10303596 0.23958096 0.24400803
000330 91 46 1a 3e cd b0 54 3e 92 8e 51 bd 0f bc 09 3e
       0.15065981 0.20770569 -0.051161356 0.13450645
000340 0f f2 03 3e 12 7a 5d 3e 71 7d 0e 3e b8 a2 71 3e
       0.12885307 0.21628597 0.1391504 0.23597229
000350 5d 6f 2b 3e 0f 62 0d bd f5 24 97 bd b0 e5 86 3e
       0.167417 -0.034517344 -0.07380096 0.26347113
000360 25 07 28 3e f6 ce dd 3c f8 18 8f bd 61 d9 39 3d
       0.16408975 0.027076226 -0.06987184 0.045373324
000370 5a 45 5c bd 41 59 c8 bd 8b 50 e1 ba c0 65 c9 3d
       -0.053777076 -0.09782649 -0.0017190141 0.098338604
000380 07 3f 8f bd b9 04 e5 3d ad b2 1c be 3c a0 2e bd
       -0.069944434 0.111825414 -0.15302534 -0.04263328
000390 29 44 cf 3b f2 4e 46 be ba 44 47 be 54 54 20 3e
       0.006325264 -0.19366053 -0.19459811 0.15657169
0003a0 d0 20 d7 3d 6c 1a 26 bd b5 59 dc 3d f7 8a 73 3c
       0.10504305 -0.04055254 0.10759298 0.014864675
0003b0 a2 d5 4f 3b 9b 88 ff bc bd 0b 7f be 81 75 43 be
       0.0031713028 -0.031193068 -0.24906822 -0.19087793
0003c0 c8 3c a4 bd 33 37 38 3e 1a 17 3b be 21 5c d8 3d
       -0.080194056 0.17989807 -0.18270531 0.10564447
0003d0 5a b4 79 3b fa 41 55 be c2 07 d3 bd af 0f 45 be
       0.0038101883 -0.2082595 -0.10304214 -0.19244264
0003e0 04 f4 89 be c9 48 63 be 0d d2 37 be 5c 2c 50 be
       -0.26943982 -0.22195734 -0.17951222 -0.20329422
0003f0 7a c4 47 3e 66 11 26 3e 60 d4 2c 3e 49 7f 9d 3d
       0.19508544 0.16217574 0.1687789 0.07690293

conv1.0.bias f4 [32]
000000 e5 ea 7c 3e 7e 4b 71 be 42 7c 9f be 7e ab 0a be
       0.2469898 -0.23563954 -0.3114949 -0.13541982
000010 82 2e 3c 3e e0 3e 8a be cf 81 be be e3 c5 a6 3c
       0.18377116 -0.27001095 -0.3720841 0.020358032
000020 d3 ce bb 3e 9b 29 99 3e af 41 13 3e 7b fc b4 be
       0.36681232 0.29914555 0.14380525 -0.35348877
000030 4b ad 92 3e 86 de 92 bd 33 97 18 be b2 54 8b 3e
       0.28647837 -0.07171349 -0.14901428 0.27213055
000040 ed ae b0 be d9 4b 32 be 07 fd d0 3e 94 af 05 3e
       -0.34508458 -0.17411746 0.40818045 0.13055259
000050 54 bd 79 be 2a f9 d1 3e 72 23 af be b6 1b 96 be
       -0.24388629 0.4101041 -0.3420673 -0.29318017
000060 8a 12 a3 be 36 ba b8 be a0 05 4a 3e c0 f6 97 be
       -0.31850082 -0.36079568 0.19728708 -0.29680443
000070 7d 65 93 be a3 47 ad be ff 92 f1 bd e2 f4 da be
       -0.28788367 -0.33843717 -0.117956154 -0.42764956

conv2.0.weight f4 [16, 32, 3, 3]
000000 15 49 3c 3c da 69 2c bd 3f 73 3d bd 93 9d b4 3c
       0.0114920335 -0.042093135 -0.046252485 0.022047793
000010 ac 3d dd 3b 78 8f b1 bc 13 2e 3f bd 21 f7 38 3d
       0.0067517366 -0.021674857 -0.0466748 0.045157555
000020 ec 86 05 3d e7 94 81 3b 4a 63 e1 3c 25 72 dd 3c
       0.032599375 0.003954518 0.027513165 0.027031967
000030 0a 5b 44 3d eb 71 bc bc 80 5c 50 bd 83 ef 5b bd
       0.047938384 -0.02300354 -0.050869465 -0.053695213
000040 fb 3c bb 3c 37 99 ce 3c 32 77 12 bd 55 3b a4 3c
       0.022856226 0.025219543 -0.035758205 0.020047823
000050 ac de 13 3d d0 55 fa 3c 77 ad 1a 3d 1c 2e a1 bc
       0.03610103 0.030558497 0.037763085 -0.019675307
000060 9e 30 35 bb 61 75 81 bc 99 d6 fc 3c e9 87 81 bd
       -0.0027647386 -0.015803041 0.030864047 -0.06324751
000070 cc a7 47 3c a9 e3 3c bd 6e f0 1b 3c 10 e7 4f bd
       0.012186002 -0.04611555 0.009517772 -0.050757468
000080 a7 27 47 bd 32 84 ce 3c 86 d2 6e 3c 64 3b 44 3d
       -0.0486218 0.02520952 0.01457656 0.0479082
000090 7d 11 e4 bc ba a7 d4 3c 92 29 28 bd 90 b7 00 3c
       -0.02784037 0.025958885 -0.04105527 0.007856265
0000a0 ab 8c e4 bc 0c 34 fe bc ae 46 ef bc 8d 99 31 3d
       -0.027899107 -0.031030677 -0.029208507 0.043359328
0000b0 ad 93 f5 3c ee ce 45 3d 58 84 e4 bc eb 8d 83 bd
       0.029977644 0.048293047 -0.027895138 -0.06423553
0000c0 84 56 17 bd a0 7f 1b bd 54 34 11 ba 92 9d 78 bd
       -0.036947742 -0.03796351 -0.00055391085 -0.060697146
0000d0 86 c1 b8 bc b0 e6 37 3c 40 53 4a bd ea e7 dd 3b
       -0.022553217 0.011224434 -0.0493958 0.006772031
0000e0 a2 2d 1d 3d ee 9d bb 3c 08 23 27 bd 97 48 14 bd
       0.038373597 0.022902455 -0.040804893 -0.03620204
0000f0 37 18 1b 3d a8 66 c7 3b ac 67 54 3d b3 c7 18 bd
       0.03786489 0.0060852356 0.05185668 -0.037299823
000100 86 4e 05 bd 24 e9 0b bd 7a 3a a1 bc dd e7 71 bd
       -0.03254559 -0.034157887 -0.019681204 -0.059059013
000110 80 8d 4e bc ff 4e 0e 3b 59 d1 74 bd 91 9c e3 bc
       -0.012606978 0.0021714566 -0.059769962 -0.027784618
000120 3b ed c6 bc 79 1d e0 3c cb 82 4c bb ff 6a 18 3c
       -0.024283042 0.027357804 -0.0031205888 0.009302854
000130 ab 08 c4 3c 8b 85 31 bd 47 74 fd 3b 9b fa 78 bd
       0.023929914 -0.043340247 0.0077348086 -0.06078587
000140 07 a1 f7 bb b1 1d b4 3c 5e a1 ad bb 70 0e 0d bc
       -0.0075570378 0.021986814 -0.0052987775 -0.008609399
000150 4a f6 73 3c eb 5d b1 bc 4e aa 7a bd 12 ea ff bc
       0.014890263 -0.021651229 -0.06119757 -0.031239543
000160 b4 19 04 bb fb a1 83 bd 33 ed 61 3c 39 20 42 bd
       -0.0020156922 -0.0642738 0.013789463 -0.04739401
000170 c9 a4 d9 bb 54 9b 1a bd 90 00 ff 3b 47 60 59 3c
       -0.0066419584 -0.03774579 0.0077820495 0.013267583
000180 31 8d 44 bd e7 18 f5 bc 2f 4c cd bc 2f b1 8e bc
       -0.047986213 -0.0299191 -0.025060741 -0.017418472
000190 8a f6 52 3d 61 97 96 3c 54 ea 3f 3c 65 c0 c3 3c
       0.05150465 0.01838273 0.011713583 0.023895452
0001a0 05 c6 a8 3c 9b ef 5c 3d 3f bf b6 bc 16 99 67 3c
       0.020602236 0.053939443 -0.02230799 0.01413562
0001b0 d0 05 0d bd ff a1 36 3c e6 ce 39 bc 66 44 18 3d
       -0.03442937 0.011147021 -0.011340832 0.037174605
0001c0 fb 6d 2a 3d b5 af 55 bc 3e 21 8a bd 84 79 e5 3b
       0.04160879 -0.01304238 -0.06744622 0.007003011
0001d0 58 90 53 bb 1c af ab 3c 75 26 33 bd ae 7d 59 bc
       -0.003228208 0.020957522 -0.043737847 -0.013274593
0001e0 49 86 07 3d 59 db cd 3c d6 70 14 bd ff 9b a1 bc
       0.03308705 0.025129007 -0.03624042 -0.019727705
0001f0 4c 62 38 3d 35 f1 a9 bc c2 0b 80 bd 02 79 bc 3c
       0.04501562 -0.0207449 -0.062522426 0.02300692
000200 5e 46 0c 3d b7 d0 2f bd f5 17 bb 3c 75 d7 9b 3b
       0.034246795 -0.042923655 0.022838572 0.004755909
000210 e9 62 e5 3c 8f 34 d0 3c a0 25 32 bd 85 f9 fe bc
       0.028001266 0.025415687 -0.043492913 -0.03112484
000220 20 0e f3 bc 57 43 04 3d 04 a3 1f 3d c0 b4 03 bd
       -0.029669821 0.032290783 0.038973823 -0.0321548
000230 41 5c 23 bd 63 b0 1e 3d 0c 06 92 3c fd 78 7c bd
       -0.039882902 0.038742434 0.017825149 -0.06163882
000240 72 52 a0 bb d5 b4 7f 3c 73 4f 08 bd 91 6e 1b 3b
       -0.0048926407 0.015607079 -0.033278894 0.0023717026
000250 85 e7 4e bc 98 c8 0f 3d ab 2a 2c bc 21 a6 33 3d
       -0.012628441 0.03510341 -0.01050822 0.043859605
000260 78 21 c5 bc d3 02 83 3c 7b 8c 99 3c 4c 0a d2 3c
       -0.02406381 0.015992558 0.018743744 0.025639676
000270 b8 b3 3f 3b eb be f1 3c 94 14 e3 3c d3 a0 3c bc
       0.0029251408 0.029509982 0.027719773 -0.011512953
000280 e9 e9 db 3c 4b 2e df 3c cb 78 0f bc 50 64 52 3c
       0.026844935 0.027243754 -0.008756827 0.012841299
000290 1a 99 9c 3c 9f ee d9 3b 90 8b d4 bb 28 26 10 bc
       0.019115973 0.0066507603 -0.0064863637 -0.00879816
0002a0 48 6b 3c bd a1 5c 95 bc 6b 8c 09 3c 1f 59 f5 bc
       -0.04600075 -0.018232645 0.008395295 -0.029949723
0002b0 4e dd 67 3c 28 ca 09 3d 3d 88 84 bd 27 d7 29 bd
       0.014151884 0.033640057 -0.06471298 -0.04146495
0002c0 00 c8 2c 3d 91 f6 ae bc 83 ed a6 3c 3b b5 d4 3c
       0.042182922 -0.021357806 0.020376926 0.025965324
0002d0 93 b2 4e bd 19 8e d7 3c 3a 4b 55 bd 93 a1 c3 bc
       -0.05046327 0.026312875 -0.052073695 -0.023880756
0002e0 ba 6b 52 bd 76 5e 16 bb 2e bc 32 bd 29 4e 5e 3b
       -0.051372267 -0.0022944487 -0.043636493 0.0033921099
0002f0 48 41 cf bc 46 3f 33 3d c8 32 64 3c ad 32 3d 3b
       -0.025299683 0.043761514 0.013928123 0.0028869316
000300 29 7c 44 bc 3e ae 1b bd f8 ec be 3c 3e 03 86 3c
       -0.011992493 -0.038007967 0.023306355 0.016358968
000310 35 84 3a bd ea 10 c5 bc 80 68 69 b7 9d f5 1a bc
       -0.04553624 -0.024055917 -1.3912213e-05 -0.009457973
000320 e6 de b1 3c bb f0 70 bd 9c b4 bf bc d1 33 68 bd
       0.021712732 -0.05882333 -0.023401551 -0.05669004
000330 81 fb ce 3b b0 28 d5 bc 79 6b 0f bc 7b e7 1a bd
       0.0063166027 -0.026020378 -0.008753651 -0.037818413
000340 4f 61 3b 3d aa 82 0b bc 84 b9 9d bc 67 fe 17 bd
       0.045747098 -0.008515039 -0.0192535 -0.03710785
000350 de df 89 bd 29 66 34 3d c1 03 07 3d a0 ed 90 3c
       -0.067321524 0.04404274 0.032962564 0.017691433
000360 39 11 cb bc 8f 75 26 3c d7 b1 c8 3c 18 1e 5a bd
       -0.024788486 0.010159864 0.024498863 -0.053251356
000370 2f 14 bd 3c 11 33 2f 3d 45 79 9a bc c7 db 8f 3c
       0.023080913 0.04277331 -0.018856654 0.017560853
000380 bb 69 3b 3d 1f 75 c7 bc 4f ae e6 ba b9 d3 0c bd
       0.04575513 -0.02434784 -0.0017599555 -0.034381602
000390 dc 61 87 bd a4 c4 0a 3c 95 96 62 bd 3a cb 0c bd
       -0.06610462 0.008469734 -0.055319387 -0.0343735
0003a0 e5 d5 0b 3d 1e e1 46 bc 94 1c ed bc 55 f5 3f bd
       0.034139533 -0.012138633 -0.028944291 -0.046864826
0003b0 b0 d7 20 3d 18 9f 2d bd dc 4d 08 bc 3c 89 26 bd
       0.039268196 -0.04238805 -0.008319344 -0.04065822
0003c0 c8 e6 32 bd 69 ed dd bb b2 37 bb bc 10 0f 0e 3c
       -0.04367712 -0.0067726863 -0.022853706 0.008670583
0003d0 b4 44 3a 3d e6 e8 15 3d 63 aa 23 bc 37 12 76 bc
       0.045475677 0.036599062 -0.009989354 -0.015018991
0003e0 37 21 04 3d 7a 3e b7 3c 64 ca 72 bc 29 38 87 3c
       0.03225824 0.022368658 -0.0148187615 0.016506271
0003f0 23 9e 31 bd 82 ad 9d bb 09 d1 13 bd 32 9f 49 bd
       -0.0433637 -0.0048119435 -0.036088023 -0.049224086

conv2.0.bias f4 [16]
000000 56 9f d5 bb 8a be 8e bc 30 f2 58 be 49 a3 34 bd
       -0.0065192385 -0.01742484 -0.21186137 -0.044101033
000010 e8 a5 26 bd 15 b5 2a bc d9 78 d1 bd 49 bd dc bc
       -0.040685564 -0.01041915 -0.10228128 -0.026945727
000020 85 37 b2 3a b3 61 0c be 77 c2 07 be 7a b7 f1 3c
       0.0013596868 -0.13709144 -0.13257776 0.029506434
000030 dd 07 18 3e 4d a3 ed bd 6e 08 74 3e ae e0 0f bd
       0.1484675 -0.11603413 0.2383134 -0.03512638

fc1.1.weight f4 [5, 560]
000000 2a cb ce 3c 3f 4f a7 bb fb 6a 90 bc 97 6b e9 bc
       0.02524336 -0.0051058824 -0.017629137 -0.028493686
000010 25 ba 0a bc ad 3b fa 3c 39 62 80 bc ed ee d9 bc
       -0.008467232 0.030546034 -0.015671836 -0.026603187
000020 75 eb df 3c 5c d3 46 bd 88 d0 c9 bc 43 56 57 3c
       0.027333954 -0.04854141 -0.024635568 0.013143125
000030 2c 20 01 bd e8 e4 03 3d e8 d9 ae bc 68 30 16 bb
       -0.031524822 0.032200724 -0.02134414 -0.0022917036
000040 bb 46 23 bd 2d 6d c4 ba 56 7d 83 bc 1e 16 48 39
       -0.039862376 -0.001498615 -0.016050976 0.00019081726
000050 b0 6e f7 3c f1 fe d7 bc e5 78 51 bb 92 7b 8d 3c
       0.030204147 -0.026366683 -0.0031962928 0.017270837
000060 b5 d8 c4 3c 2f 83 1f 3c 6e b7 7d bc 4c 65 fa bc
       0.024029115 0.009735866 -0.015485628 -0.03056588
000070 a7 f2 2f bd f0 06 32 bb 6a 7e 58 3c a0 f2 9a 3b
       -0.04295602 -0.002716478 0.013213733 0.00472863
000080 00 87 41 3b 8f 4d 5a 3c d3 f4 89 bc 78 de 9f b9
       0.002952993 0.0133241555 -0.016840374 -0.00030492595
000090 16 8e 04 bc ee c1 04 bd ee ad bf bc 19 03 d3 bc
       -0.008090517 -0.03241151 -0.023398366 -0.025758313
0000a0 10 74 12 3d e0 a1 a5 3c c0 8c 22 3c b8 68 8f 3c
       0.035755217 0.02021879 0.009921253 0.017505988
0000b0 56 d8 30 bb cc 1e b6 bc 72 91 26 3b 8f 57 fc 3c
       -0.0026984415 -0.022231482 0.0025416282 0.03080347
0000c0 5c 2b 16 3d 6c d1 01 bc 7e 4d d6 3c 85 12 bb 3c
       0.036662444 -0.007923465 0.026159998 0.02283598
0000d0 e6 ae bc b9 ec 33 4e 3c d6 4d f5 bb db 97 e8 bc
       -0.00035988464 0.012585621 -0.0074860854 -0.028392723
0000e0 ba c3 41 3c ee 34 9c bb 4e 6d 83 bc c1 00 9e bc
       0.01182645 -0.004767052 -0.016043331 -0.019287469
0000f0 fe 7d a7 3a 54 44 87 3c 6d b0 1a bd c4 53 21 3c
       0.0012778637 0.016512074 -0.03776591 0.009846631
000100 33 32 ea 3c 83 f4 87 bb b8 95 71 bb 00 4a ff bb
       0.02858839 -0.004149021 -0.003686292 -0.007790804
000110 03 1e c7 bc fd e8 c5 3b ae 15 c7 bb 9a 6a 29 bb
       -0.024306303 0.0060397373 -0.0060755825 -0.0025850893
000120 ef a1 19 bd 8b f8 6b bd 00 c3 4b 3c e7 1d 04 3d
       -0.037507948 -0.057610076 0.012436628 0.03225508
000130 78 64 4f ba f2 b3 85 3c 00 dc 3b 3c b2 0f 5a 3d
       -0.00079113944 0.016321156 0.011466026 0.053237624
000140 76 3f 1d 3d ef c9 02 bd ea 5b 12 3c 47 1e 74 3c
       0.0383906 -0.03193086 0.008933047 0.014899797
000150 26 9d 5e bd aa 0d 90 3d c1 98 9e bd d7 77 5a bd
       -0.054349087 0.07033856 -0.07743979 -0.053336944
000160 d2 b8 95 3a 9e 40 22 bd d2 59 e9 3d 45 14 9b 3d
       0.0011422879 -0.039612405 0.11394085 0.075722255
000170 32 17 8d 3d db 95 10 3d a6 d9 60 3d 0d 20 90 3c
       0.0688919 0.035299163 0.054895066 0.017593408
000180 63 f9 4f bd b2 30 1f bd 85 39 19 bc da 80 10 bd
       -0.050774943 -0.0388648 -0.009352093 -0.035279132
000190 09 99 36 3d 0e 95 78 3c 92 be f5 3c d9 8b f6 bc
       0.04457954 0.015172256 0.029998098 -0.030095981
0001a0 c5 bb b1 3b 94 10 a0 3d 17 9e e5 3b d8 a5 98 bc
       0.005423995 0.07815662 0.007007371 -0.018633768
0001b0 39 28 5d bd 1a d4 69 bb bf 05 cb 3c b9 af 83 bc
       -0.053993437 -0.00356794 0.024783013 -0.016075002
0001c0 c6 e0 02 3d 8d 55 c1 3c cb c4 65 bc 1a e5 44 3d
       0.031952642 0.023600364 -0.01402397 0.04807005
0001d0 cb 2b 3f 3c 0c e4 a5 bc da 7d 93 bc 14 c9 2d bd
       0.011668156 -0.020250343 -0.018004347 -0.04242809
0001e0 26 40 0a 3d 89 75 ab bd 85 96 e2 bc 0c 2c b5 bd
       0.033752583 -0.083720274 -0.027659664 -0.08846292
0001f0 9b 5f 58 bd 33 91 a8 3c 45 c9 4d 3d 7e d1 09 3d
       -0.05282555 0.020577049 0.050240774 0.033647053
000200 d9 ca f4 bb d5 ae 4f 3d b1 1f a1 bc d3 3a 0e bd
       -0.0074704704 0.050703842 -0.019668432 -0.034724068
000210 b1 af b2 ba 1c f6 a6 bc 48 70 0a 3d 2e b7 94 3c
       -0.0013632682 -0.020381026 0.033798486 0.018153753
000220 bc 67 81 3d 64 7d 79 3d 63 16 1d 3d 82 4e ef 3b
       0.06318614 0.060910597 0.038351428 0.00730306
000230 07 90 05 3c d6 7e f7 bc c8 8d f8 bb 86 22 a9 3c
       0.008152015 -0.030211847 -0.007585261 0.020646345
000240 27 c3 df bc 69 cb 99 bc eb ee c2 bc cc 6f 9b bc
       -0.027314736 -0.018773751 -0.023795566 -0.018974207
000250 8e e3 2a bc 4a a5 d1 bb 6f 62 15 3d eb 87 00 bb
       -0.01043023 -0.006397878 0.036470827 -0.0019612263
000260 f7 f7 09 3d 58 95 3f 3c 67 23 bb bc 7c 68 45 bd
       0.033683743 0.011693321 -0.02284403 -0.048195347
000270 cd a4 39 bc 66 a3 38 3c 26 f7 1d bd c0 b4 60 bc
       -0.0113307955 0.011269426 -0.038565777 -0.013714969
000280 f5 66 13 bd 07 95 96 3c c2 32 1f 3c c7 58 f8 3b
       -0.03598686 0.018381609 0.009716691 0.0075789425
000290 08 9f e6 bc 44 4e 2b 3c 6f d0 0c 3d 2a 25 00 bb
       -0.028152004 0.010455672 0.034378465 -0.0019553402
0002a0 09 17 b1 bc 9f 77 b0 bc a0 bd a5 3b 00 5e fb bc
       -0.02161743 -0.021541415 0.0050580055 -0.030684471
0002b0 4a 80 0b bd 78 9a 31 3c 11 94 dd 3c 44 6c 5f 3d
       -0.034057893 0.010840051 0.027048143 0.05454661
0002c0 8c 8d c2 3d 3d 40 c5 3d e7 de a9 3d 34 68 db 3c
       0.09499654 0.09631393 0.082944684 0.026783086
0002d0 32 27 84 3c a8 d4 96 b9 d7 60 56 bd 52 ce c5 bd
       0.016131971 -0.0002876867 -0.052338447 -0.09658493
0002e0 57 4e 7c bd c3 e2 a0 3d 6d 0c 6f bd ed 38 83 bd
       -0.06159815 0.07855751 -0.05836146 -0.06407342
0002f0 df d5 c9 bc 4f 57 af 3b a5 be ef 3d 7f da 27 3c
       -0.024638114 0.005350984 0.117062844 0.010244965
000300 ad c3 3a bd d7 3e 07 bd b2 04 cd 3b f0 06 34 3d
       -0.045596767 -0.033018913 0.0062566632 0.04395193
000310 56 82 d1 bd 91 44 ec bd 94 1d 32 be a7 ec 22 bd
       -0.10229938 -0.115365155 -0.17394096 -0.03977647
000320 da cc c1 3d df ab ef bd 64 1d df bd 12 4d e4 bd
       0.094629005 -0.11702704 -0.10894278 -0.111475125
000330 9d 47 86 3d b2 79 db 3c 27 f8 e8 bc 10 98 fd bb
       0.06556628 0.026791427 -0.02843864 -0.0077390745
000340 be ae 23 bd 8e d3 0d bd 79 cb c7 bc 68 00 62 bb
       -0.03996157 -0.034625582 -0.024389016 -0.0034485105
000350 41 24 ec bc 06 b0 f9 bc 3a de 17 bd f8 46 ba 3c
       -0.028825881 -0.030479442 -0.037077166 0.022738919
000360 2c 03 8a bc b7 31 04 3b ea 29 9f 3c 69 b9 61 3d
       -0.016847216 0.0020171234 0.019429166 0.05510846
000370 f2 fe a9 bc 9f 93 47 bd b9 52 4f bb 68 6a a9 bc
       -0.02075145 -0.048724767 -0.0031635 -0.020680621
000380 69 94 51 3d 53 0c 99 bc 8d c0 41 bd 3b c5 20 bd
       0.051166926 -0.018682634 -0.04730277 -0.039250594
000390 c5 65 e2 bc cd b9 92 bc ff 01 aa 3d aa e8 23 3d
       -0.027636418 -0.017910862 0.08301162 0.040016808
0003a0 41 2f 8a bb b8 c2 0c bc ab 1b e8 3c 07 33 f5 bc
       -0.004217059 -0.008591346 0.028333506 -0.029931558
0003b0 f5 2c 12 3c b5 77 a1 bc 71 fe 88 3c f5 16 1f bc
       0.008921851 -0.019710401 0.01672289 -0.009710063
0003c0 a4 82 78 3d 3c 3e ed 3b 6a e0 42 3d 00 7c 38 3d
       0.060671464 0.007240085 0.0475773 0.04504013
0003d0 68 68 e4 3c c9 7d 7c 3b 51 fe 34 3c 2d 28 5c 3c
       0.027881816 0.0038527122 0.011046962 0.013437313
0003e0 90 3a b5 3c 7f e1 2e bc 25 94 a4 bc a6 01 04 bc
       0.022122651 -0.01067388 -0.020090172 -0.008057034
0003f0 f0 97 10 3b bb 36 46 3a d4 9c 59 bc 44 a6 92 bc
       0.0022063218 0.0007561256 -0.01328202 -0.017901547

fc1.1.bias f4 [5]
000000 1f 38 7f 3c c9 ab 20 bc 0e 11 40 3c cb 78 5c bd
       0.015577345 -0.009806582 0.011722816 -0.053826135
000010 ea 86 91 3d
       0.07105811
