datascience/cnn/model_ev/model_e_v2.pt (torch, 35695 bytes, 6 tensors)

conv1.0.weight f4 [32, 3, 3, 3]
00000000: 4197 3ebe 3ec6 b13c 9c2d cebc dcc0 093e
00000010: 2bd5 1b3e dc47 e63d bc8a c2b9 0e3f a33d
00000020: 1064 173e 419c 74be fc92 923e 4ef5 313d
00000030: d24d 4e3e c2e6 34be f17d 1e3e 666f b2bc
00000040: 8f61 473e 41d5 653e 62d3 03be f47b b63d
00000050: c865 dd3d 28aa 02be 5e07 973d 1325 263e
00000060: 8981 8f3d b331 edbc ab7d 283e e732 2f3e
00000070: baa9 2f3e 349d 193e e24e 8abd cc10 2c3e
00000080: de3f a23d 65bb 49be c3d3 c43d b759 78be
00000090: b7af 50be 1901 313d 4b8c ce3b b63a 7fbd
000000a0: 045f e13d cc9e 5a3e d26f 453e 0bb6 f43d
000000b0: 8145 b9be 929d 893e bf87 5cbe bcf1 7abc
000000c0: 291f 333e 1f8e d43d c75c 1e3d fed7 003d
000000d0: ed91 d4bc ee67 b0bd e66f 353c 969e 693d
000000e0: b2e9 76bd 6381 783e bb84 083d cf20 433c
000000f0: a166 7a3e f1c2 403c 2099 8dbd 7f6c 44be
00000100: bad2 72be 527a 1f3e 9cc7 bfbd 0ccf 873d
00000110: a60c 8e3e dd5c 5cbe c184 76be 2831 41be
00000120: 517b 57be 78b1 d7bd abec 443e 5a46 b83d
00000130: 079e 2ebe 5fa7 b03e bc47 ff3d a5b7 363d
00000140: d0f8 113d 2525 2cbe f3d2 ec3d 9064 92bd
00000150: 325a f13d de5d e83d 21f7 4e3e 6fe1 ce3d
00000160: f021 163e 4c22 e33c 0c68 d83d ac4e ebbd
00000170: 21da e2bd 8375 633e 00a0 2bbc b619 3cbc
00000180: 3aea cf3c f5a8 aabd ce8d 353e 91ba 07be
00000190: 2719 6fbd a525 7abe 0780 75be e82f 4abe
000001a0: fb07 3a3e f228 41be a34f a2be a5e9 803d
000001b0: 8443 833d 800c b83d 2dfe 793e 4d48 883e
000001c0: 5525 6a3d 4596 44be eb80 2ebc 31ef 0cbe
000001d0: 7d23 13bd 9c26 69be d865 233e 1d9a f33d
000001e0: 82f2 a73c 452d 513d 735a b6be 6553 2fbe
000001f0: 54d7 743e 8ecf cd3d 946e 7cbc 6ed9 433e
00000200: 6bef 183e 4893 56be 563f 343d 5020 4ebe
00000210: bdc5 6f3e aa5a 7c3e a4bf d9bd 2658 36be
00000220: 5051 aa3c 4267 89bd eb1b 33be 3957 023e
00000230: 3cf2 e8bd 499b 2fbe 167a 24be 85b9 33be
00000240: b49b debd aecd 29be e5f2 51bd e9cd 35be
00000250: b12a fbbd ac35 883d e430 253c 7c65 293b
00000260: 8799 7f3d 8f66 94bc 38c2 2c3e 6e1b 903e
00000270: 4c83 923e 3e84 f53d 62c3 673b f43c 3d3d
00000280: bf88 2d3e 85ae 6a3c 8da4 02be 0c9c 16be
00000290: 292f be3c 0f5d b73d b89a debc 1a02 533e
000002a0: 9930 943b f01e e73d 4cf8 53be 6d79 633d
000002b0: 3f5a 9fbe 7f2a 723e df1f 853e b3d5 c2bd
000002c0: c9b9 6c3e 9249 53be 717f 9dbc 71c1 d0be
000002d0: 3ea6 c6bc cc74 5a3e fa3e 1dbe 4001 1cbd
000002e0: 6340 813e 364d 04bd 3d2a 85bd cd9e d8bc
000002f0: 95e5 11be 4f51 70be 148d 0b3d 7701 71be
00000300: 1c63 97be a4c2 dd3d 5eb6 d53d 9d48 d13c
00000310: 56ff b13c 39b0 f1bd 85f2 073e 1361 053e
00000320: 3309 2fbe 5827 82be cb0d b7bc a09d a1bb
00000330: 6455 363e ff1d 03be 0265 203e 3c48 e63d
00000340: 0314 46be 2744 94bd b912 23be d3fc 503e
00000350: be50 34be 836a 14be e829 313e 539e 063d
00000360: d4b4 dd3d a3ca 2fbe 61f2 5cbd 9906 b2bd
00000370: 0678 523e 72b7 e53d 2dc8 12be 0880 d93c
00000380: bf6c 0d3e 6a89 99be a8b4 0bbe 9f53 24be
00000390: aaf7 36bd b468 b7bd a08e 2d3d 9b02 f3bd
000003a0: 0db0 11be 7a31 c5bd f6fc f13c facc 7f3d
000003b0: 4590 223e dc47 b1bd 16d0 563e 5dbe 833e
000003c0: 0335 dfba d045 83bd d9fb f33c 4f99 c5bd
000003d0: 615b 3e3e 4e08 793e 8275 13be 51f8 b73d
000003e0: a133 cabd db2f 113e f009 f1bd 0842 773e
000003f0: dfed d2bd 4b7a 0fbd bac8 3b3e 10a7 d53d
-0.18612386 0.021700975 -0.025168233 0.13452476 0.15218036 0.11244175 -0.0003710593 0.07971011
0.14784265 -0.23887731 0.28627765 0.04344683 0.20146874 -0.17666152 0.1547773 -0.021781635
0.1947081 0.22444631 -0.12873605 0.08910361 0.10810429 -0.12760222 0.07374452 0.1622508
0.07007129 -0.028954362 0.16454189 0.17109261 0.1715459 0.15001374 -0.06753327 0.16803282
0.07922338 -0.19700392 0.09610703 -0.24252973 -0.2037953 0.043213937 0.0063033453 -0.06231185
0.11004451 0.21349639 0.19280937 0.119487844 -0.3618584 0.2687803 -0.21536158 -0.015316423
0.17492355 0.1037867 0.038662698 0.031455986 -0.02594849 -0.08613573 0.011074042 0.057036005
-0.060281463 0.24268107 0.033329707 0.011909678 0.24453212 0.011765228 -0.06913972 -0.19182013
-0.23713198 0.15574005 -0.09364244 0.06631288 0.27744025 -0.215198 -0.24074079 -0.18866408
-0.21043135 -0.10531896 0.19230907 0.089977935 -0.1705247 0.34502694 0.12464854 0.04460873
0.035637677 -0.16811045 0.11563673 -0.07148087 0.117847815 0.11346029 0.2021146 0.10101592
0.14661384 0.027726315 0.1056672 -0.11489615 -0.11076761 0.22212796 -0.010475159 -0.011480739
0.025380243 -0.08333007 0.17729875 -0.13254763 -0.058373597 -0.24428423 -0.2397462 -0.19744837
0.18167107 -0.18863276 -0.31701383 0.06294564 0.06409362 0.08986759 0.24413367 0.2661766
0.05716451 -0.19197948 -0.010650854 -0.1376312 -0.035922516 -0.22768635 0.15956819 0.11894629
0.020501379 0.051068563 -0.35615882 -0.17121656 0.23910266 0.100493535 -0.015407223 0.19125912
0.1493508 -0.20954621 0.044005714 -0.20129514 0.23415275 0.2464396 -0.10632256 -0.17807063
0.020790726 -0.06709148 -0.17491119 0.12728585 -0.113743275 -0.1714908 -0.16062197 -0.17551239
-0.10869542 -0.16582367 -0.051257033 -0.1775433 -0.12264002 0.06650862 0.010082457 0.0025847843
0.062402274 -0.01811531 0.16870964 0.28145927 0.28615797 0.11988114 0.003536426 0.046200708
0.16946696 0.014323835 -0.12758084 -0.14707965 0.023215847 0.089532964 -0.027173385 0.2060627
0.004522395 0.11285198 -0.20700186 0.055535723 -0.3112354 0.23649023 0.26000878 -0.09513416
0.23117746 -0.20633534 -0.019225808 -0.40772584 -0.024249192 0.21333617 -0.15356055 -0.03808713
0.25244436 -0.032300197 -0.06502197 -0.02644291 -0.14247735 -0.23468517 0.03407009 -0.23535715
-0.29567802 0.108281404 0.104351744 0.02554732 0.021728199 -0.1180119 0.13276108 0.13025312
-0.17093353 -0.25420642 -0.022345444 -0.0049321204 0.17806011 -0.12804411 0.15663531 0.11244246
-0.19343571 -0.072395615 -0.15925111 0.20408945 -0.17608926 -0.14493756 0.17301142 0.032865833
0.10825506 -0.17167144 -0.053942088 -0.08692665 0.20553598 0.1121663 -0.14334174 0.026550308
0.13811015 -0.2998765 -0.13643134 -0.16047524 -0.044669785 -0.089555174 0.042372346 -0.11865731
-0.14227314 -0.096285775 0.029539566 0.06245134 0.15875347 -0.08656284 0.20977816 0.25731173
-0.0017029349 -0.064098 0.029783176 -0.09648382 0.18589546 0.24319574 -0.14400294 0.089829095
-0.09873129 0.14178412 -0.117694736 0.24146283 -0.102992766 -0.035028737 0.1833829 0.10432255

conv1.0.bias f4 [32]
00000000: c0a0 d4be 8d51 c1be 2f8b aebd 85eb 7a3e
00000010: fefc c7be c2ee a23e 7d2c 6a3d 5897 cc3e
00000020: c535 953e ae50 b83e 3398 553e 0677 993e
00000030: 7c37 b4be 1c3c febc f978 45bb 4387 cd3e
00000040: 02e1 713e 7055 c43e 2f50 ed3d fe11 a7be
00000050: fd63 a5be 6e94 bcbe 167a e3be c790 2d3e
00000060: 96ed 40be ec41 8fbe 7758 21be 4902 ef3c
00000070: ff59 c83e 2444 bebe 2aea 743e 32b3 8a3d
-0.41528893 -0.3775753 -0.08522641 0.24503906 -0.39060205 0.31822783 0.057171334 0.39959216
0.29142585 0.35999054 0.2085884 0.2997362 -0.3519858 -0.031034522 -0.003013192 0.4014226
0.2362099 0.38346434 0.115875594 -0.32630914 -0.32302848 -0.36831993 -0.44429082 0.1694976
-0.18840632 -0.27979982 -0.15756403 0.029175894 0.39131162 -0.37161362 0.23917452 0.0677246

conv2.0.weight f4 [16, 32, 3, 3]
00000000: 5be2 2f3e 6949 013e 120d f7bc a5b9 f33d
00000010: 0816 803e e9bd f43d c2a3 183e 7cd8 d83d
00000020: 1ff5 453c 0b68 7d3e c4ff 993e dc0e c33d
00000030: bde6 903e d02a 4c3e e1e2 3a3e d630 843e
00000040: 19a5 8e3e d06d 5a3d edb0 d73d d9a9 c63d
00000050: d5b9 e03d dc4e 193e 958c 4a3e 11e7 053e
00000060: 23ca 8b3c 6b5d 083c 0744 84bc d6e0 80bd
00000070: d094 1fbd f705 0ebb 532a 83bd 86e6 1fbe
00000080: d465 813d e317 32be 987e afbe a116 a5bd
00000090: 0438 5e3e 14dd ac3e 4f8a d43d 3991 553e
000000a0: afea 913e 9c0d 1b3e cb4e 8c3e cf7c 6a3e
000000b0: 75c9 953d d95d ecbd f7a9 88bd b57f 08be
000000c0: e049 a1bd 1ae7 dcbd c10b 53bd 889f 28be
000000d0: 1fd5 42be 1690 01be 38e2 033e 96f8 a73d
000000e0: 4b8b 053d bbcc 5f3e 6343 a53d 14e6 4a3e
000000f0: 7193 213e f7c7 743d 400c b33d bbf4 1dbe
00000100: 9219 05be 7bd7 cf3d e065 673c 8163 00be
00000110: 3a4d 883d f395 d0bd 104f b5bd 7622 7a3d
00000120: 5b51 18be fbfa 67bd ed3e 4fb9 a238 ab3d
00000130: 580e b4bb 69fb 76bc 2cf2 77bd 566e 19bd
00000140: 8624 43bd e9ae 2dbe d1e9 d5bd 5980 9a3d
00000150: 2a3d 33be 489e 37be 20a0 ac3d e1a8 86be
00000160: 0206 a2be 1549 84bd 342f 263d 25f6 62bc
00000170: ff4b 7d3d 5705 653d d4f2 e4bd 65a2 453e
00000180: fcde 77bd 2ad9 13bd 2898 c63d 598a 17be
00000190: 0d14 ca3c bc69 b2bd 26c5 55bd 5bcb 8bbd
000001a0: 665a f13c 7af3 76be f995 50be c35d 9ebd
000001b0: ff16 4f3e 791a 813e 2137 8d3d 2a78 573e
000001c0: 943c 4a3e 2487 a43d c7e6 6a3e 304b 313e
000001d0: f478 253d 69c4 133d 335a 0bbd ac63 85bd
000001e0: e764 323c ba40 a2bc ddfd d7bb 8e74 893c
000001f0: aaae cf3c 4fae 1fbd ed5a 7c3d 2c47 253d
00000200: 0c77 d5bd 06ea f23d 22c6 c03d b693 96bc
00000210: fa0e a53d 53e0 debb e541 24bd 2655 32be
00000220: 861f a8bd 45ff ee3c ad87 03be 9f7b 64be
00000230: bab6 d13d 972a 8ebe 3eea 8abe 1638 9ebc
00000240: 1724 d4bc ed43 9e3c a92a 76bd 0004 9a3d
00000250: 5a9e 9d3d 8329 2e3b 85e6 e6bc d565 22bd
00000260: 4f02 27bd e83d 29be fd25 e1bc 895a d6bc
00000270: 0164 cf3d fe62 03bc c723 c83d 00d2 c6bd
00000280: 2b63 e5bd cf2f 173b aef6 21bd deb0 d33c
00000290: b754 aabd 41d6 9fbd 3da0 36bd e452 c7bd
000002a0: 8f9a b6bd fd1e d2bd e944 10be eeee a63e
000002b0: edca 803e e65d 853d 7194 a73e e5ea 753e
000002c0: d7c5 1e3e 5a69 5d3e c77c b33d 8db2 903d
000002d0: 3589 a03d 666e 933d ddda 41bd 53d7 943c
000002e0: 6c30 bf3d 5054 89bd 8fce ca3d 876a 5b3d
000002f0: 7470 92bc 1cb7 f33d 9ea3 703e b62d 453d
00000300: e5d5 5f3e 6fd9 3c3e b821 f33d 4c87 2b3e
00000310: 94d1 143e d595 adbc 5011 d43d 6914 973d
00000320: bf67 d63b 73d5 423e 749c 563e 0c14 08bd
00000330: 5b21 3f3e 98a3 133e 8ebc b23d a598 f6ba
00000340: c78b 6b3d fad9 613d 84e6 bf3c 955f a6bd
00000350: 474c e73d 670c 67be 9e0a 60be 57d9 05be
00000360: c265 173e b0c0 e73d 6c82 1c3e 3aee 7c3e
00000370: 3dcd b13d d2a9 423e 35d2 78bd a9cf 9a3b
00000380: c1f5 b3bd e709 093e c74e ce3d 0a60 333c
00000390: d548 e33d 0773 ecbb 4b2e d6bc 5c74 693d
000003a0: 870a 463d b2cd 5ebc 9ef1 f33c 5987 75bc
000003b0: 58b3 19be a5a4 e5bb 5723 4c3d b82f 72bd
000003c0: 029e 543d 92b4 d4bc 21a0 13bd 5d1b ee3d
000003d0: e63d 253e cb0c a93d 2809 163e 585c 093e
000003e0: 3070 083c 6015 463d 15a2 f93d 8efb 953d
000003f0: 8f7b 0dbe 3a44 afbd 9160 9d3d ad7a 0cbe
0.17176192 0.1262566 -0.0301576 0.11900643 0.25016809 0.11950285 0.14906219 0.10588166
0.012082367 0.2474672 0.30077946 0.095243186 0.2830104 0.19938207 0.1825061 0.2581851
0.27860335 0.05332738 0.10531793 0.097003646 0.10972945 0.14971489 0.1978019 0.13076426
0.01706416 0.008323054 -0.01614572 -0.06292884 -0.038960278 -0.0021671036 -0.06404557 -0.15615281
0.0631825 -0.17391925 -0.3427627 -0.08060957 0.21701056 0.3376242 0.10377943 0.2085618
0.28499362 0.1514191 0.27403864 0.22899173 0.073138155 -0.115413375 -0.06673043 -0.13329966
-0.07875419 -0.107862666 -0.05152488 -0.16467106 -0.19026612 -0.1265262 0.12879264 0.08201711
0.032603543 0.21855442 0.080694936 0.1981433 0.157789 0.059761014 0.08742571 -0.15425389
-0.12998036 0.101485215 0.01412341 -0.12537958 0.06655355 -0.101848505 -0.088529706 0.06106802
-0.14874785 -0.056635838 -0.000197645 0.08360411 -0.005494874 -0.015074589 -0.060533687 -0.03745874
-0.047642253 -0.16961254 -0.104449876 0.075440116 -0.17503801 -0.17931473 0.08428979 -0.2630072
-0.3164521 -0.06459252 0.04057236 -0.013852631 0.061840054 0.055913296 -0.11179128 0.1930023
-0.06051539 -0.036095776 0.0969699 -0.14798869 0.024667764 -0.087115735 -0.05218997 -0.06825896
0.02946205 -0.24116316 -0.2036971 -0.077327274 0.20223616 0.2521551 0.06895281 0.21041933
0.19749671 0.080335885 0.22939597 0.17313838 0.040398553 0.036075983 -0.034021568 -0.065131515
0.010888315 -0.019806255 -0.006591542 0.01677921 0.025351841 -0.038984593 0.06161015 0.040351078
-0.10423097 0.11861043 0.09412791 -0.018380981 0.08059497 -0.006801644 -0.040101904 -0.17415294
-0.082091376 0.029174456 -0.12844725 -0.22312783 0.102399305 -0.27766868 -0.27131838 -0.019313853
-0.025896115 0.019319499 -0.060099278 0.07520294 0.07696219 0.0026575036 -0.028186092 -0.039647896
-0.040773686 -0.16527522 -0.027483935 -0.026166217 0.10126496 -0.008019207 0.09772449 -0.09708023
-0.112005554 0.0023069268 -0.039541893 0.025841173 -0.08316939 -0.078045376 -0.04458641 -0.09732607
-0.089161985 -0.10259817 -0.14088787 0.32604164 0.2515482 0.0651205 0.3273044 0.24015386
0.15505157 0.2162222 0.08764034 0.07065306 0.0783867 0.07198791 -0.047327865 0.01816908
0.093354076 -0.067055345 0.09902679 0.05356839 -0.017875887 0.1190016 0.23499915 0.048139296
0.21858938 0.1844232 0.11871666 0.1675083 0.14533073 -0.02118961 0.103548646 0.0737694
0.006543129 0.19026737 0.2095812 -0.033222243 0.18665068 0.14417875 0.0872737 -0.0018813802
0.05750635 0.05513952 0.023425348 -0.081236996 0.112938456 -0.22563325 -0.2187905 -0.1307119
0.14784911 0.11316049 0.15284127 0.24700251 0.08681724 0.19010094 -0.060747344 0.004724462
-0.08787108 0.13382684 0.10073619 0.01094819 0.11097876 -0.0072158608 -0.026145121 0.056995735
0.048349883 -0.013598846 0.029778298 -0.014985883 -0.1500982 -0.0070081525 0.04983839 -0.05912754
0.0519085 -0.025965009 -0.036041383 0.11626313 0.16136894 0.08254393 0.1465193 0.13414133
0.008327529 0.04836023 0.12189118 0.07323371 -0.13816665 -0.08557935 0.07684434 -0.13718672

conv2.0.bias f4 [16]
00000000: 0c92 51be 0d83 87bd d18a b73d 8b74 4fbd
00000010: f97f c2bd bb3d 87be 95ba 83bc b865 3fbd
00000020: 6e40 0b3e 898b febd 0780 32bc c50d 23be
00000030: 4214 b13d 7933 a83d 384f 37bc de5f 343e
-0.20465869 -0.06616793 0.08962024 -0.050648253 -0.09497065 -0.26414284 -0.01608018 -0.046727866
0.13598797 -0.12428958 -0.010894782 -0.15923221 0.08646442 0.08212943 -0.011188321 0.17614695

fc1.1.weight f4 [5, 560]
00000000: 98d0 bb3d f603 413d 3116 bf3c 22a1 93bd
00000010: 8789 5d3d f0ff ba3d 59bd 35bc acb5 74bd
00000020: 1cb1 c9bc fa9d 263c cfe7 d63d bc80 04bd
00000030: ef40 e03c 0d68 a1bc a309 8e3b 6b95 d43c
00000040: ffcf 83bd 5fe3 56bd d77d b3bd 5489 93bc
00000050: f5d7 413d 6883 1abc cf1c 473d 9004 1abc
00000060: 51fd ae3c c689 493c e8d1 16bd dc19 72bc
00000070: 394a ccbc 0ddb 18bd 538f 873d 239b e9bc
00000080: 64b0 24bd 1d76 e73c a1a1 a43c 736b 6e3c
00000090: 8af9 a03d 8a98 6e3d bad5 393d 1bd6 083d
000000a0: 1918 3dbd 1b1e 51bd d134 13bc 5fb0 7cbd
000000b0: 530f e4ba cd81 873c 2919 40bd 7859 8dbb
000000c0: 0027 15bd 1d2a 7dbb f4af 4cbc 424a 69bb
000000d0: 9d6a 4ebd 7823 4eb8 afd4 733d 224a bbba
000000e0: f58b 30bd c2bd 8dbc 6c48 dbbd f6ac 083d
000000f0: da73 963c 3ec6 3ebc a022 31bd 189c bbbd
00000100: 2453 f33d 4f4b debd 013c 3d3d febd b0bd
00000110: 98bd babd 68cc bc3b 599c 4a3d 1b83 a33d
00000120: e28a bd3d afaa 613d b894 cb3d 8eed 1abb
00000130: 607c b0bc b641 c13c 3487 75bd 553f 2a3d
00000140: 51d9 343d 77de 2abd aa64 f33c 77e2 56bd
00000150: 8f75 503d 048e d93c 8142 07bc 4b42 aa3c
00000160: ab8d ebbc 9f84 a2ba 3aef 8a3d 7040 14be
00000170: f4ab 4dbe e39e 45be df20 87bd 061a 333d
00000180: a23b 05be d640 febd 9752 50be 0c8e 4c3e
00000190: 01b0 2dbc 5ee1 9b3d 6de6 aa3c 62ee 06bd
000001a0: 503d 103d d472 0f3d 5856 ec3c f0a6 6dbc
000001b0: 27f9 0abd d4f6 643c c8fd 303c 4afc 3bbc
000001c0: 0363 eebc e489 1f3d dc1e ca3c 90ae 18bd
000001d0: ff53 91bc c24b a3bc c2f4 b9bc 9cab e4bc
000001e0: ed89 b4bc 2073 f63c 24bd ce3c 40df f43b
000001f0: 5008 8dbb 7eab b0bb cc8e 543c c01b eb3c
00000200: 4080 12bb b087 253b e87c 1abd e045 80bb
00000210: 50ef 3b3c 8bea 9ebc a4f3 193c 678b 87bc
00000220: 0865 9fbb 91bc d4bc def0 083d d5ee 1fbd
00000230: ed57 833d fc98 dc3d 7bff 26bd 26c0 6bbd
00000240: a2c4 4b3d c7dc 2e3d a2d6 95bc 46b9 2abd
00000250: d5d4 203c 6e46 943d fcc8 213d 8865 10bd
00000260: 76a7 25bc 437d 59bc 9387 103d ef6d f93c
00000270: 35e5 febc 467b a2bd beac ddbd e3a8 773c
00000280: 036d 4e3d bc79 683c 748c 153d 7b20 a73c
00000290: 0fb9 cb3d 48de 9ebc bf5a 37bd 891d 8abd
000002a0: 906e 3c3c 05a3 e6bb ca00 d23c bbe8 2b3d
000002b0: 283a ed3c 631a 213d 07f3 e43c 2d59 143e
000002c0: 1092 8e3d 3085 fa3c 2259 3abd 069a 4f3c
000002d0: daf5 c13d 2b73 63bd 299a 3f3b 841e 8fbd
000002e0: 059d dabd ae84 9e3d 06fb 1cbc 3c98 d1bc
000002f0: a851 b03c 6778 e3bd eb53 bf3d 3bee 9dbd
00000300: 69fc c3bc d0d8 24bd 82eb 11be 0601 f43d
00000310: eac4 713d 2ac6 1b3d 7e58 f33a af7b 3abd
00000320: dd1f ee3d 370c 6dbd 2913 0cbd 716b 02bc
00000330: 1f3d 8cbd dfc2 e63d 0eab b13b 48f0 ec3b
00000340: 1297 1c3c c06d fcbd 30b2 42bd 6b5b b0bc
00000350: 2e35 17bd c0b0 eabd afe7 5dbd 79dc d0bd
00000360: ee32 053d d80d f83a 9382 9e3c a989 47bd
00000370: a1a6 49bd 3e94 73bc a26d 04bd 22da cabc
00000380: b978 12bd 4e5f 07be 3a57 2e3a bba8 913c
00000390: baea 4abc 7fc1 f6bd edf3 9cbc 9e1f 80bc
000003a0: 948f 85ba 5c1e bd3d bb1c 333d 22a4 4cbd
000003b0: 11e6 803d b4e1 b43d 5bea 633d 1c9e 053c
000003c0: c863 4dbd f9a3 8dbb 5aa6 5dbc 1290 713d
000003d0: 0190 3f3d ba9e e13c 28c7 7dbc 78ed 943b
000003e0: 38f0 03bd d065 0b3b 3cef 213d 2907 11bd
000003f0: f225 72bc 0491 ba3c 7c6f ddbc 3234 01bd
0.091706455 0.047122918 0.023326011 -0.07208468 0.054086234 0.091308475 -0.011092507 -0.05974357
-0.024620585 0.0101695005 0.10493433 -0.032349333 0.027374713 -0.019702936 0.004334645 0.025950154
-0.064361565 -0.05246293 -0.087642364 -0.01800982 0.047325093 -0.009430744 0.04861146 -0.009400502
0.021361025 0.012300914 -0.036821276 -0.014776673 -0.024937736 -0.037318278 0.06619134 -0.028516358
-0.04020728 0.028254563 0.020096602 0.014551985 0.07860096 0.05825094 0.04536984 0.033407312
-0.04616556 -0.0510541 -0.00898476 -0.061691638 -0.0017399587 0.016541386 -0.046898995 -0.004313644
-0.036414146 -0.0038629838 -0.012493122 -0.003559724 -0.050394643 -4.914726e-05 0.059529003 -0.0014289061
-0.043102223 -0.017302398 -0.10707173 0.033368073 0.01836579 -0.011643944 -0.04324591 -0.09160632
0.11881092 -0.10854208 0.046199802 -0.08629988 -0.091181934 0.005761672 0.04946551 0.07983991
0.092550054 0.055094417 0.09940475 -0.0023640129 -0.021543682 0.023590904 -0.059943393 0.041564304
0.04415256 -0.041716065 0.029711086 -0.052462067 0.050893363 0.026556976 -0.008255602 0.020783564
-0.028754076 -0.0012399143 0.0678391 -0.14477706 -0.20085126 -0.19298892 -0.065980665 0.04372599
-0.1301103 -0.1241471 -0.20344006 0.19976062 -0.010601045 0.07611345 0.020861829 -0.032942183
0.035214722 0.035021618 0.028849766 -0.014505133 -0.033929016 0.013974864 0.010802694 -0.011473725
-0.029099947 0.038949862 0.024672918 -0.03727585 -0.017740248 -0.019933585 -0.022699717 -0.027913861
-0.022038424 0.030084193 0.025236674 0.0074729025 -0.0043039694 -0.005391537 0.012973499 0.028699756
-0.0022354275 0.0025257878 -0.037716776 -0.0039145797 0.011470631 -0.019398948 0.009396467 -0.016545964
-0.004864339 -0.025968822 0.033432834 -0.039046127 0.06413255 0.10771367 -0.04077099 -0.057556294
0.04974807 0.04269102 -0.018290821 -0.041680597 0.009816368 0.07239996 0.039498314 -0.035253078
-0.010110727 -0.013274494 0.035285544 0.030447928 -0.031115154 -0.07933669 -0.108239636 0.015115949
0.05039693 0.01418918 0.0365109 0.02040123 0.099474065 -0.019393101 -0.044764277 -0.06743915
0.0115009695 -0.0070384764 0.025635142 0.041969996 0.028958395 0.039331805 0.027947916 0.14487143
0.06961453 0.030581087 -0.04549516 0.012670999 0.094707206 -0.055529755 0.0029236174 -0.06988242
-0.1067448 0.077401504 -0.009581333 -0.025585286 0.021523312 -0.11106949 0.09342178 -0.077114545
-0.02392407 -0.04024583 -0.14249995 0.11914258 0.059025683 0.03803078 0.0018565801 -0.04552811
0.11627171 -0.057872977 -0.03419796 -0.007960186 -0.068475954 0.112676375 0.0054220026 0.007230792
0.009557502 -0.12325621 -0.047533214 -0.021527966 -0.03691595 -0.11459494 -0.05417603 -0.10198302
0.032519273 0.0018925024 0.019349372 -0.048715267 -0.049231175 -0.014866887 -0.032331116 -0.024762217
-0.03575966 -0.1321995 0.0006650571 0.017780652 -0.012385065 -0.12048625 -0.019159282 -0.015640076
-0.0010189884 0.09234306 0.04372857 -0.049961217 0.06293882 0.08832112 0.05564342 0.008155372
-0.050143987 -0.0043225256 -0.013528431 0.058975287 0.046768192 0.027541507 -0.015489377 0.00454491
-0.032211512 0.0021270402 0.039534792 -0.03540722 -0.014779555 0.022774227 -0.027030699 -0.031543918

fc1.1.bias f4 [5]
00000000: 955f 623d 8a24 40bd 841f 66bc 3807 b9bd
00000010: adfd b13d
0.055266935 -0.046909846 -0.0140456 -0.0903458 0.08690963
